07_deeplearning_pytorch/saved_models/bc_model2.pth (torch, 6957 bytes, 5 tensors)

weight f4 [16, 30]
00000000: b036 eabc 29d9 413c 0d92 91bc df01 b3be
00000010: acdb e7bd 29e9 4b3e ed84 91be 1ab5 44be
00000020: ffdb 233e c4ad a13e 2c16 dabe 2ad2 4ebd
00000030: 2a51 babe b532 cfbe 8547 7c3d 5c79 54bb
00000040: 29b3 413e f33e cebd 3a00 373e 969f 3f3d
00000050: 0f3f b9bd 76b7 a5be 000b a0bc 0e77 88be
00000060: 9d3f 97bd 3d5c e3bd 0cf2 7fbd f7ad 2abe
00000070: 20c7 3fbe 2407 d1bd 8026 af3e e4d5 a33e
00000080: 70e5 a93d 43fe 473e 0ed0 6e3e c890 ad3d
00000090: b9ae ed3d a0c7 8d3e 063c 81bd 9dba c3be
000000a0: 7fdc 7c3e 25ec bfbd 62f5 873e 3b87 db3d
000000b0: dbc2 3fbe d988 5bbe 831b 2c3e e65a a33e
000000c0: 5941 57bd a018 16bd 9ed2 a13e 5332 3d3e
000000d0: 9488 c93e 9af9 583d 38c2 ca3e be4f a53e
000000e0: 1573 1e3e 3037 d63e 4fc0 b43d 75d1 0c3e
000000f0: 6f72 4a3e b727 a13e 564e 063e 49cf 733e
00000100: 2e50 203d 9dd0 073e bd64 0f3d e0ed 3f3e
00000110: 8199 373e 51c9 4fbe 6eb0 583e 3cb3 b7bd
00000120: 5703 b73c 251c 943d c26a 1b3d cccf b93d
00000130: 2c3c cbbc 1d98 6a3e 73ad 31bc 7658 80be
00000140: 1bc2 013e 84e7 8b3e e3db 973e be42 613e
00000150: ce20 ad3e b7c8 143d 2145 753e 9de6 a13e
00000160: 9c9e f13d d7fd e93d c245 61be e094 42be
00000170: ae90 fbbd e915 a0be 24ae 83bd d682 1fbe
00000180: 9671 edbd 2626 91bd 1e09 c93d c03a eb3d
00000190: aa99 24be a1ad b03c 1624 f3bc a513 c3be
000001a0: 13f8 aa3d 07c9 433e 1b41 09be 1c19 18be
000001b0: 31b7 603e efe6 583e 66ed 40be f551 28bd
000001c0: f619 c4bd 5144 80be abbb 50be c850 973d
000001d0: 037d 8dbd ba60 80be 5d6f 25be f099 05be
000001e0: bd5a 12be 697b babd df34 3dbe 8b81 bbbd
000001f0: 4925 84bd 3a97 70bd e79c b4bd 8cc7 1cbe
00000200: 9ec4 ffbc e3ab 493d e825 99be f9d1 08bd
00000210: 1a83 a6bd 69da adbe 83f4 9bbd 3e0c 713d
00000220: d116 b43d 857a 913d c626 923e fc77 e23d
00000230: 7d39 0bbe 5f38 29be a3da d1bc ad01 a3be
00000240: 5f7f 9abd da0a 993d 0684 ecbd 2c8e e7bd
00000250: b694 d8bd 5ec8 003e 3cda 403d 1772 50be
00000260: c3ca 80be fe0d 1ebe 1d2f dcbd fb59 b53c
00000270: 24e9 01be 83a6 6abd 683e edbd ab6d a8bd
00000280: ab05 80be 2a85 07be cb71 9cbe db8d 1dbe
00000290: b369 43be 50b3 02be 078b 41be 3427 7fbe
000002a0: 45e7 39bd 0a71 983d 4afa 35bc 3260 f2bb
000002b0: 2423 8abe 5c5f 29bd 0d0d 59be da6c f6bd
000002c0: 6e0f 84bd 2ae8 19be eab1 3fbe c2df a1be
000002d0: 89ac 78be 8126 a9bc d66b 72be 21d0 643c
000002e0: 6e5a 15be cd7f cfbd 4291 96bd f865 56be
000002f0: bf2a 643b 9a32 1d3d 480f abbe 7e0f cdbd
00000300: 2bd2 acbe 738d 8dbc bc0f f9bc 8c22 30be
00000310: 8531 24bd ab65 0ebe 6654 efbc 5083 5ebe
00000320: 2385 54be e1c5 8cbe 08ec 6ebe 35df 23bc
00000330: 280c eabd edcb d7bd a9a5 8ebe f972 87bd
00000340: dc95 5abe 9e70 103d 089e ac3e dd57 a03e
00000350: c0b4 723e 2754 8e3e 143c 753d 96df a73e
00000360: e080 8b3e 00a2 bf3e 8015 203e 8479 b9bd
00000370: 18bb 043e dba0 85bd 940f 9b3e 5af2 6c3e
00000380: 381a 9bbd 18b8 d2bc 06f2 fa3c a17e c53d
00000390: 4d39 2dbe e91d dabd c37d 8c3e 0d0f 9f3e
000003a0: e5cf 593d 7ce1 eb3d f0f9 b93d f198 ae3d
000003b0: 7491 cc3e 6a20 ac3d 3ddf 853d 8213 943e
000003c0: d2c6 93bc 1b3c 223d 508b 053e ae37 d23c
000003d0: f5e4 e23c 26a5 ea3a ec1e 733d b6c5 ca3d
000003e0: 38ed c3bc 9c50 c5bd efe0 42bd ffb3 51bd
000003f0: 1f75 d3bd a199 123e 21fb f2bd 6b85 973d
-0.02859053 0.01183156 -0.017769838 -0.34962365 -0.11321196 0.19913162 -0.28421727 -0.1920971
0.1600189 0.31577885 -0.4259504 -0.050493397 -0.36390048 -0.40468374 0.061591644 -0.0032420969
0.18916 -0.100706 0.1787118 0.046783052 -0.090452306 -0.32366532 -0.019536495 -0.26653332
-0.0738518 -0.111015774 -0.062486693 -0.16667925 -0.18728304 -0.1020644 0.3420906 0.31999123
0.08295715 0.19530587 0.23321554 0.084748805 0.11605591 0.27691364 -0.06310277 -0.38228312
0.24693488 -0.09371213 0.265544 0.107191525 -0.18726675 -0.21438922 0.1680737 0.31905288
-0.052552555 -0.036644578 0.31606 0.18476228 0.39362013 0.052972414 0.39601302 0.322874
0.15473588 0.4183898 0.088257425 0.13751777 0.19770215 0.31475613 0.1311582 0.23809542
0.039138965 0.13263173 0.03500818 0.18743086 0.17929651 -0.2029164 0.21161053 -0.08969733
0.02234046 0.07231931 0.03794361 0.09072837 -0.024808966 0.22909589 -0.010844576 -0.2506749
0.12671702 0.2732507 0.29659948 0.21998116 0.3381409 0.03632423 0.23952152 0.31621256
0.117978305 0.11425369 -0.21999267 -0.19002104 -0.12283455 -0.31266716 -0.06429699 -0.15577254
-0.115939304 -0.07087354 0.09816192 0.11485815 -0.16074243 0.021567168 -0.029680293 -0.38100925
0.08348098 0.19119655 -0.13403742 -0.14853328 0.21944882 0.21181844 -0.1884056 -0.041093785
-0.09575264 -0.2505212 -0.2038409 0.07388455 -0.0690861 -0.25073797 -0.16155763 -0.13047004
-0.14292426 -0.0910557 -0.184772 -0.09155568 -0.06452424 -0.05873797 -0.08818989 -0.15310496
-0.031221684 0.04923619 -0.29911733 -0.03340337 -0.081304744 -0.33955696 -0.07614996 0.058849566
0.087934144 0.07103447 0.28545207 0.110580415 -0.13596149 -0.1652541 -0.02561695 -0.31837216
-0.07543825 0.07472773 -0.11548619 -0.11306414 -0.10575239 0.12576434 0.047083125 -0.20356022
-0.25154695 -0.15435025 -0.10751174 0.022137633 -0.12686592 -0.057287704 -0.11584169 -0.082240425
-0.25004324 -0.13234392 -0.30555567 -0.15386145 -0.1908329 -0.12763715 -0.18900691 -0.24917299
-0.04538657 0.074434355 -0.011107037 -0.0073967213 -0.26979935 -0.041350707 -0.21196385 -0.120324805
-0.064482555 -0.1502997 -0.18720213 -0.31616026 -0.24284567 -0.020648243 -0.23673949 0.013965637
-0.14585277 -0.10131798 -0.073519245 -0.20937335 0.0034815518 0.038378336 -0.33410096 -0.100127205
-0.33754095 -0.017279362 -0.03040301 -0.17200679 -0.040086288 -0.13905971 -0.029215049 -0.21729779
-0.20753913 -0.2749472 -0.23332226 -0.010001947 -0.114281 -0.10536943 -0.27860764 -0.06613726
-0.2134623 0.03526365 0.33714318 0.31317034 0.23701763 0.27798578 0.059871748 0.3278777
0.2724676 0.37428284 0.15633202 -0.090563804 0.12961996 -0.06524821 0.30285323 0.23139325
-0.0757336 -0.025722548 0.030632984 0.09643293 -0.1691639 -0.10650236 0.274397 0.3106617
0.05317678 0.11517617 0.09080875 0.08525265 0.39954722 0.0840462 0.0653672 0.28921133
-0.01803914 0.039608102 0.13041425 0.025661316 0.027697066 0.0017902001 0.05935566 0.099009916
-0.023916826 -0.09634516 -0.047577795 -0.05119705 -0.103250735 0.14316417 -0.11864305 0.07398494

bias f4 [16]
00000000: fb42 bf3e 4c2e b93e 20cb 243e fa87 b73e
00000010: fafc a73e 8076 533e e38b e2bc 0c65 e73e
00000020: c9cb 75be de23 5c3d a4c2 953e e4a9 513e
00000030: bc57 493d cf31 953e 6ee1 203e 7240 383e
0.3735579 0.36168134 0.16093111 0.3584593 0.32810193 0.20650673 -0.027654594 0.4519428
-0.24003519 0.053745143 0.29250062 0.20474964 0.049155936 0.29139563 0.15710995 0.17993334

weight f4 [8, 16]
00000000: 321c cb3e 47fb 00bc 9867 b13d 04ab d53d
00000010: 7507 323e 8e99 f33d 4635 b6bc 7957 4fbb
00000020: 0f8f 80be 7d2a 973e 5677 8d3d f712 0e3c
00000030: 11a4 973e e562 cabc 6a65 bd3e 454a 46be
00000040: 6738 563e 826d 003e 3dc8 3c3e 4abe a13e
00000050: ccab ce3e 1768 633e cb0a a73e 8437 ebbd
00000060: 7cb8 403e b172 693e 6e87 db3c d18c 503e
00000070: 75b8 063e 832c b0be bdb0 af3e e05a 32be
00000080: 6fe1 553e 8584 75be 9b0b fbbd f3ef 803e
00000090: da67 8f3c 5208 2e3e fc5b a3bd fc3e a43d
000000a0: ec43 8abe 9beb d53d 402a 9e3e 37c2 b53e
000000b0: d630 ab3e 28e8 39be 175f 35bd ee81 00be
000000c0: f800 3a3d f28a 68be 3b28 57bd 54f3 423d
000000d0: 19c2 c03e 9d97 ba3e 8c79 883e c523 c5bd
000000e0: e5fe 1e3e fb41 cf3c 2ed3 9b3e 56c5 34bc
000000f0: 4031 673e 6573 90bc 3331 153e 6c7c b0be
00000100: e42c 34be f418 873e f0ee a33e f328 5ebe
00000110: 9cb9 84be a6b9 d23e b1ed f43d fcf4 e23e
00000120: e27d abbd ca52 21be 126d f53d d81f 5abe
00000130: b317 d8be 8a2f 893e 66ba b8be ed45 783e
00000140: 1dda 3dbe e877 0e3f 409f 7e3e a59f acbd
00000150: 8895 93be 8880 6b3e 9c68 5c3e a2d1 f43e
00000160: a3ac ecbd e531 b3be 0cff fb3c 400f 52be
00000170: 3435 5cbd 1111 6d3e 1b53 48be 8814 d83e
00000180: fa74 f83c 39db 9fbd 3da4 9bbe 46ec d63e
00000190: 2baf d43e d76f b33e 2461 543e 84f8 8a3d
000001a0: a910 44be b188 033d e2f2 b23d a7fd 8f3d
000001b0: 77b1 dc3e 3318 b9be 2371 1e3e f4f1 f8bd
000001c0: 9945 803e 484f afbc a2c5 853c 4e4a 00bd
000001d0: e7cb 983e 19d4 7f3e 7a13 a73e f81f a0be
000001e0: de83 d13d 055e b53e ab0a c13e a81e 823e
000001f0: 25ce 81bd 112f b8be d259 fb3d e0fd 2f3c
0.3966995 -0.007872409 0.08662337 0.10433009 0.17385657 0.118945226 -0.0222422 -0.003163783
-0.25109145 0.29524603 0.06907527 0.008671514 0.2961736 -0.02470536 0.36991435 -0.19364269
0.20919953 0.12541774 0.1843576 0.31590492 0.40365446 0.22207676 0.32625422 -0.11485198
0.18820375 0.22797658 0.026797976 0.20366217 0.13156302 -0.3440896 0.34314528 -0.17417479
0.20886777 -0.23976333 -0.12258073 0.25183067 0.017505575 0.16995361 -0.07976529 0.08019826
-0.27004945 0.10445329 0.3089161 0.35499737 0.33435696 -0.18154967 -0.044280138 -0.12549564
0.04541108 -0.22709253 -0.0525286 0.047595337 0.37648085 0.36443797 0.26655233 -0.09625963
0.15526922 0.025300017 0.30434555 -0.011033377 0.22577381 -0.01763315 0.1456955 -0.34469926
-0.1759525 0.26386225 0.32018232 -0.21695308 -0.2592286 0.41157264 0.119593985 0.44327533
-0.083736196 -0.15754238 0.11983694 -0.2130121 -0.4220558 0.26794082 -0.3607971 0.24245425
-0.18540235 0.5565171 0.24865437 -0.08428887 -0.2882502 0.2299825 0.2152428 0.47816187
-0.11556365 -0.34999004 0.030761264 -0.2051363 -0.053761676 0.23151042 -0.19562952 0.42203164
0.030329216 -0.07805485 -0.3039874 0.41977137 0.41539893 0.35046265 0.20740181 0.06785682
-0.1914698 0.03211278 0.087377325 0.07030802 0.43104145 -0.36151275 0.15472846 -0.12155524
0.250531 -0.021400109 0.01632959 -0.031320862 0.29843065 0.24983253 0.32632047 -0.3127439
0.1023023 0.35423294 0.37703452 0.25414014 -0.06338147 -0.3597341 0.12272991 0.010741681

bias f4 [8]
00000000: becb 183d 3836 60bd fec9 823e 84d5 a23e
00000010: 4f7c 533e ccf6 483e 0454 b23e d9d8 a73e
0.03730368 -0.054739207 0.25544733 0.31803524 0.20652889 0.19625396 0.34829724 0.3278263

weight f4 [1, 8]
00000000: 6b54 833e 0b87 d53e 0d61 0a3f 81b0 7c3e
00000010: fdd7 dabe 9f05 bbbe 783b 423e 3729 883e
0.25650343 0.41704592 0.5405434 0.24676706 -0.4274291 -0.36527726 0.18967998 0.26593944
