07_deeplearning_pytorch/saved_models/bc_model.pth (torch, 6945 bytes, 5 tensors)

weight f4 [16, 30]
00000000: 3f58 bcbe 8a92 bdbe b860 25bd 7f7a 76bd
00000010: 92fe f8bd cfc1 e63d cf07 e6bd a2eb f0bc
00000020: 8f67 cd3d 5785 ff3d a739 8fbe a113 b8bd
00000030: da69 d9bd f1d3 95be a619 2b3e 5bb0 2a3e
00000040: 3341 fa3d 109c c8bd 9b89 da3d 4299 60bb
00000050: 2a05 a1be dadf 7cbe 31e7 acbe 1d37 6abd
00000060: 860c 65be c89a bc3d c275 30be 64f3 06be
00000070: e318 41be 3137 f33d 4200 bbbe afec 27be
00000080: 7480 d4bd ba4c 0ebe aea8 e0bd 695c 83bd
00000090: f775 a2bd 1694 58bd 4c28 16be 2f16 933d
000000a0: 0fa9 80be df5f 513d d09d a6be 4b30 8cbe
000000b0: 3397 013c 7923 203e 4594 4a3e 7a17 a3bd
000000c0: ce40 793e 3330 863e a7d9 a5bd 022b 0fbe
000000d0: 0a3a 27be 1d54 bbbe 0d47 3ebe b983 01be
000000e0: 44b5 f43c e178 8fbe bd18 12be fe3d 483e
000000f0: 8f33 bcbe ff6e a2be 6de4 e4bd dafc a1be
00000100: a73c 07be 2d9b 913d 9c57 8abe a7df 98be
00000110: ef2f 03bd aca7 c23e 575a 99be fd3b 26be
00000120: 61ea aebe 2590 35be aed0 1d3e 6743 113d
00000130: ddb2 07be f3f3 3ebe e7be ad3e cd98 4abd
00000140: 9c20 c7bd f7dd 96be cbb2 d3bd 3796 ebbd
00000150: 9784 f3bc a600 28bd dbe1 8ebe 0f1a 65be
00000160: 106b 6d3d c9b6 71be 9522 93be 7c92 4abe
00000170: f017 c1bd 5e31 06bd 7b25 57be 36f7 9cbd
00000180: 6b5d 37be 157b 66be 754d 8abd 25e8 533e
00000190: 7f18 84be 2fbf 2e3e 54a5 6ebd cef3 e7bd
000001a0: 78e8 263e d6d1 133e d415 ec3d a6fd d6bc
000001b0: 5a32 853e dcaa 5cbd 73d4 14be 28ac 85be
000001c0: a8ff 75be 2597 abbe f716 e73b a315 0a3d
000001d0: 05da 18be f2df 4cbe c5b7 6dbe 659c d43d
000001e0: f67b 9c3e aa34 643e c8e0 193e dd58 c33e
000001f0: a57e 4d3e 6120 5d3d 9be2 3e3e f6bb d33e
00000200: 7f17 8d3e 2898 7bbe 4b5d 803e 97ae 603d
00000210: 3168 af3e d77f a33d 398a 653d 1ed6 ad3e
00000220: 2e9b 093e b724 763e 737f 40be 4e5e a9bd
00000230: 106a 1d3e a688 9d3e f29b d53d ead5 143e
00000240: d423 cb3e 53ef 5b3e 969b 243e 8890 ce3e
00000250: ce3b ef3d cac1 8c3e 10f5 3d3e 4e12 523d
00000260: 349a e83d 5934 8b3e 100a 733e f2e3 c83c
00000270: 8698 803e 4a1b 723e 5ded af3e f93f 90be
00000280: 9bcb 2f3d 72da 5c3d 4b3f 573d 5073 b93d
00000290: 034a 77be 346d 323c e073 753d 41b5 a6bc
000002a0: ed6e f7bd b3b4 e4bc da60 c33e 179e 593e
000002b0: 1350 913e ffa9 b13e f298 f33d 910e 033d
000002c0: ab9e b03e a61c 993e 7298 aa3d 52ff 533e
000002d0: fc60 aebe 5eed d5be d997 9bbe cf9c 63bd
000002e0: aa19 ad3d 1df9 2fbd c78b a2bd 971b 31be
000002f0: ac15 2cbe 5801 403e 08d4 5bbe c0a1 c2bd
00000300: 6b3b 32be e7b2 56be 24b2 a2bd 8826 07be
00000310: df8f 233d 0f74 28be 22ed 203d cbbb 95bd
00000320: 672e 8abd a1dc 3dbe 2169 87be 7dd3 abbe
00000330: 50ac 95be 00fe 7c39 829e 2bbe ce56 f4bd
00000340: bb08 9cbe 6f56 93be 20f8 63bd 3c0a 8bbe
00000350: 53bb 55be 13e2 8dbe 0b75 70bc c75a 87bd
00000360: 8674 123d f647 afbe f977 223e 9ea4 d73d
00000370: 0c71 9abe 4e78 0bbd cc96 dbbe 13dd 99be
00000380: 4cda 683d 4993 63bd 0199 623e d5a0 a0bd
00000390: 06dc 9b3e 1efd 893e 694c b7be 2068 e3be
000003a0: 8641 e2bd 6e52 d5be a72f fdbd cecb 16bd
000003b0: f005 80bd 399f 8cbd a087 05be 8941 ae3d
000003c0: 6ad9 4cbe 1cf4 12be 73ef 60bc 19c3 9bbe
000003d0: 6dc1 083d e5b1 4dbe 86e4 17be 8de7 60be
000003e0: fa59 47bd 6173 8f3e deb3 cabe ca21 f13d
000003f0: e5f1 e6bd c6b0 a3be e6e2 203e 116c 003e
-0.36786076 -0.37025863 -0.04037544 -0.060175415 -0.121579304 0.11267435 -0.11231958 -0.029409233
0.10029518 0.124766044 -0.27973673 -0.08988119 -0.10615893 -0.2926326 0.16709003 0.16668837
0.12219467 -0.097953916 0.106707774 -0.0034271036 -0.31449252 -0.24694768 -0.33770135 -0.057181466
-0.22368059 0.0920921 -0.17232421 -0.13178784 -0.1885715 0.11875761 -0.36523634 -0.16398881
-0.10376063 -0.13896456 -0.10969673 -0.0641411 -0.07932656 -0.0528756 -0.1466381 0.071819656
-0.2512898 0.05111682 -0.32542276 -0.27380595 0.007909584 0.15638532 0.19783123 -0.07963462
0.24341127 0.26208648 -0.080981545 -0.1398125 -0.16330734 -0.3658761 -0.18581791 -0.12647904
0.02987159 -0.2802191 -0.1426725 0.19554898 -0.36758086 -0.31725308 -0.11176381 -0.31638223
-0.13206731 0.071096756 -0.27019966 -0.29858133 -0.032028135 0.38018548 -0.29951736 -0.16233821
-0.34163192 -0.17730768 0.15411636 0.03546467 -0.13251825 -0.18647747 0.3393471 -0.04946213
-0.097230166 -0.2946622 -0.103368364 -0.115032606 -0.02972631 -0.041016243 -0.2790669 -0.22373222
0.05796343 -0.23604883 -0.28737321 -0.19782442 -0.09428394 -0.032761924 -0.21010391 -0.07664339
-0.1790673 -0.2250789 -0.06753055 0.20694025 -0.2579994 0.17065118 -0.058263138 -0.11325799
0.16299617 0.14435515 0.11527601 -0.026243996 0.26014978 -0.05387388 -0.14534168 -0.26107907
-0.24023306 -0.33513752 0.007052298 0.03371204 -0.14926918 -0.20007303 -0.23214634 0.103813924
0.30563325 0.22285715 0.15027153 0.38153735 0.20067842 0.053985957 0.1864113 0.4135434
0.2755699 -0.24569762 0.25071177 0.054854 0.3425918 0.07983368 0.056040023 0.3395242
0.13438103 0.24037443 -0.18798618 -0.0826994 0.15372491 0.30768317 0.10430135 0.14534727
0.39675772 0.21478014 0.16074976 0.40344644 0.11681329 0.274916 0.18550515 0.051286988
0.11357537 0.27188376 0.23734307 0.024522755 0.25116366 0.23643222 0.3436078 -0.28173807
0.042918783 0.053919263 0.052550595 0.09055197 -0.24149327 0.010890294 0.05992496 -0.0203501
-0.12081704 -0.027918195 0.3815983 0.21251713 0.28381404 0.3470001 0.118944064 0.031996313
0.34496054 0.2990467 0.08329858 0.20702866 -0.34058368 -0.4178266 -0.30389288 -0.055569466
0.08452161 -0.042962182 -0.07936817 -0.17295681 -0.16805142 0.18750513 -0.21467602 -0.095035076
-0.17405479 -0.20966683 -0.07944134 -0.13198292 0.039932128 -0.16450523 0.039288647 -0.07311209
-0.06747132 -0.18541194 -0.26447394 -0.3355979 -0.29233027 0.00024127215 -0.16759685 -0.11930619
-0.3047541 -0.2877688 -0.055656552 -0.27156246 -0.2087224 -0.27711543 -0.014676343 -0.06609111
0.035755657 -0.3423459 0.15866078 0.10529445 -0.30164373 -0.03405028 -0.42888486 -0.3005148
0.05684881 -0.055560384 0.22128679 -0.07843176 0.30441302 0.26950926 -0.35800484 -0.4441538
-0.11047654 -0.4166445 -0.123626046 -0.036815457 -0.062511325 -0.06866307 -0.13040018 0.085085936
-0.20004812 -0.14350933 -0.013728964 -0.30422285 0.03338759 -0.20087393 -0.14833269 -0.2196333
-0.048669793 0.28017715 -0.39590353 0.11774023 -0.112766065 -0.31970805 0.15711555 0.12541224

bias f4 [16]
00000000: 8c94 963e a3c3 023e bff8 b63d 2a7a 143e
00000010: 7167 7b3e 9498 1c3c 54a6 483d 5b60 dc3d
00000020: 344e 953e 9c05 ac3e 091a 653e 18a6 ac3e
00000030: bda3 42be d289 eebd 4356 1d3d 072b 123e
0.29410207 0.12769942 0.08934163 0.14499727 0.24551179 0.009557862 0.048986748 0.10760566
0.29161227 0.3359803 0.22373213 0.3372047 -0.19007774 -0.11647381 0.038412344 0.14274226

weight f4 [8, 16]
00000000: 35ed dcbb f684 40be 13bc 653d 693b 1d3c
00000010: 9601 e03e 7e05 b03e 86a2 99be b9ee 3cbe
00000020: cd0c aabd 4a64 d73e 6402 c3bd fd15 b4bd
00000030: e2b0 ad3c a78d 36bd 0ee9 943d 7159 8cbe
00000040: 8596 c13d d646 14be a70d f43d 01db 93bd
00000050: df1a 2dbe feda bdbc 537f 8d3d bdd6 51be
00000060: fd3f 1dbe a08a 5abd e58c 11be 2258 20be
00000070: d2cc 62be 9b5f cb3d 66ac 053d c7ca e3bd
00000080: 4701 223e 6ca3 ab3e 3d28 3f3e 3e84 333e
00000090: 27f7 1abe 0463 a4bd 821c 5e3e 440f 2f3e
000000a0: 1d28 013e cec9 bbbe f7b2 683e 21b1 8d3e
000000b0: 12d5 4d3e 7b32 1a3e 23a1 1cbe e2ff 423e
000000c0: 56bf 5a3e ca72 7e3e c275 8bbc 8022 9c3e
000000d0: ea1d 533d d995 01bd e004 a13e b69c 373d
000000e0: 581f 843e 14cd 5cbe ccf7 893e a26e b13e
000000f0: 8f1e 673e 072b d03d ba0f c9be 63d5 163d
00000100: 153e 3dbe 58f6 e5bb b84f 9e3d 764e 863d
00000110: ac93 a63e 2a4f a83e 0449 27bd b269 73be
00000120: 4b2e 22be 000b df3e 0ad3 903d d4ec ccbc
00000130: 7f8f 15bc 4e8b 8dbd cef5 e13e 16a6 9cbe
00000140: bb62 703d 317e 723e d36b db3e 0ff6 423c
00000150: e0cf d4bc 642a af3d e933 b23e 8002 a63e
00000160: ecc0 813e 1425 a1be b2f1 a43e db6d 003e
00000170: c04c 13be 88e1 a13c b4e2 71be 9daf 9d3e
00000180: ced5 be3d 7825 893c da18 cf3e f0be 593e
00000190: 93fc 133e ee46 01ba e70c 183e 4a25 b53e
000001a0: aff6 d63e e80c 55be 3ea1 d23c 9328 263e
000001b0: f624 a6bd 5f4b 3b3e c7b6 70be 6c93 c93e
000001c0: 5e85 c13e c81e 923e f315 793e d1df a73d
000001d0: dad9 583d 3daa f5bd 363d 563e 2f18 8f3e
000001e0: c171 943e 9405 b7be cb31 b73e eade 4f3e
000001f0: 5ff5 893e 209d 2d3e 9bc9 dbbe fc55 e03e
-0.0067421445 -0.1880072 0.056087565 0.009596684 0.4375121 0.3437919 -0.30006808 -0.1845044
-0.08303223 0.42068702 -0.0952194 -0.087932564 0.021202508 -0.044568684 0.07271014 -0.27411988
0.094525374 -0.14480147 0.119166665 -0.07219506 -0.16904782 -0.023175713 0.06909051 -0.20492072
-0.15356441 -0.05335486 -0.14213903 -0.1565862 -0.22148445 0.09930345 0.032635115 -0.11122661
0.158208 0.33523118 0.18667693 0.17530915 -0.15133344 -0.08026698 0.21690562 0.17095667
0.12612958 -0.36677402 0.2272452 0.276742 0.20100811 0.1505832 -0.15295844 0.19042924
0.21362051 0.24848476 -0.017023925 0.3049507 0.0515422 -0.031637046 0.31449032 0.044827186
0.25805163 -0.21562606 0.26946867 0.3465472 0.22570251 0.10164457 -0.3926981 0.036824595
-0.18480714 -0.007017892 0.07730049 0.06557934 0.3253454 0.32872897 -0.040841118 -0.23770788
-0.15837972 0.4356308 0.070715025 -0.025015272 -0.00912845 -0.06911336 0.44132847 -0.30595464
0.058687907 0.2368095 0.428557 0.011899485 -0.025978029 0.08553007 0.3480523 0.32423782
0.253425 -0.314736 0.3221565 0.12541907 -0.14384747 0.019760862 -0.23621637 0.30798045
0.09318124 0.0167415 0.40448648 0.21264243 0.14451818 -0.0004931529 0.14848672 0.35380012
0.4198508 -0.20805705 0.025711652 0.16226415 -0.081125185 0.1829047 -0.23507224 0.39370286
0.37797064 0.2853911 0.24324779 0.081969865 0.052942134 -0.11995361 0.20921788 0.27948138
0.28993037 -0.35746443 0.35780177 0.20299879 0.26945016 0.1695447 -0.4292725 0.438156

bias f4 [8]
00000000: 49e0 b33e b92b 9fbe 40d1 a83e 1dec 013e
00000010: 0805 7b3e 8986 693e 0884 99bc 6b7e a73e
0.35132053 -0.31088045 0.32972145 0.12687726 0.24513638 0.22805227 -0.018739715 0.32713637

weight f4 [1, 8]
00000000: ec15 a7be 2b9f 823d 4cd7 9a3e 387d c83e
00000010: 0165 debe e5af 803e 2ca4 d33e 454b ce3e
-0.32633913 0.06378015 0.30242383 0.39158034 -0.43436435 0.25134197 0.4133619 0.402918
