07_deeplearning_pytorch/saved_models/bost_model_parameter.pth (torch, 7153 bytes, 5 tensors)

lr1.weight f4 [32, 13]
0	0x3e4d2a82	0.20035747
1	0x3ea38d59	0.31943777
2	0x3e22da54	0.15903598
3	0x3ceaf923	0.02868325
4	0xbe946915	-0.2898642
5	0x3e118a5a	0.14212933
6	0xbe74f9e5	-0.23923452
7	0x3ae45354	0.0017419853
8	0x3ea85c80	0.32883072
9	0x3ecf696d	0.4051012
10	0x3e6876b8	0.22701538
11	0xbd2b2d1d	-0.04179107
12	0xbf4f91ef	-0.8108205
13	0xbf3e440e	-0.74322593
14	0x3e350f13	0.17681532
15	0x3d8c7af2	0.068593875
16	0xbdf79e59	-0.12090749
17	0x3e6fbe78	0.23412502
18	0x3e9e15d1	0.3087602
19	0xbe997614	-0.299729
20	0xbb2e5177	-0.002659885
21	0xbe3f93f2	-0.1870878
22	0xbea68596	-0.32523793
23	0xbb801c90	-0.003909655
24	0xbe49e136	-0.19714817
25	0x3e981173	0.29700813
26	0xbefcd2da	-0.49379617
27	0xbdfd56ad	-0.12370048
28	0xbd9e83de	-0.077399954
29	0xbe6aadb2	-0.22917822
30	0x3e0c5eea	0.13708082
31	0x3ea99339	0.33120134
32	0xbef97dd6	-0.48728818
33	0x3e920475	0.28519025
34	0xb9327b10	-0.00017021247
35	0xbe280831	-0.16409375
36	0xbefb3d5c	-0.4907025
37	0x3e26d82d	0.16293402
38	0xbe067b46	-0.13132963
39	0xbea3cdf2	-0.3199306
40	0xbb861aad	-0.0040925355
41	0xbe4910fc	-0.19635385
42	0x3eaa2a3a	0.3323534
43	0xbe654b61	-0.22392036
44	0x3dd76d08	0.10518843
45	0x3f075764	0.5286772
46	0xbe2a4aba	-0.16630068
47	0xbdfba0bf	-0.12286519
48	0xbb826ca0	-0.0039802343
49	0xbd7f913e	-0.062394373
50	0xbe335876	-0.17514214
51	0xbef834e5	-0.48477855
52	0x3d7485e1	0.05969799
53	0x3e9d2957	0.30695602
54	0x3d98f121	0.07467867
55	0x3ef04a7b	0.46931824
56	0xbef69c0d	-0.48165932
57	0x3de8399c	0.11339113
58	0xbeb02a3b	-0.3440722
59	0xbe8dac64	-0.27670586
60	0x3e41c433	0.189225
61	0xbecf29e5	-0.4046165
62	0xbe2c3bea	-0.1681973
63	0x3e340304	0.17579275
64	0xbd1573cc	-0.036487386
65	0xbead58f9	-0.33856943
66	0xbecfa5cf	-0.4055619
67	0x3db8bd20	0.09020448
68	0x3e1f977b	0.15585129
69	0xbe198dc2	-0.14995483
70	0xbed870cc	-0.42273557
71	0x3db4f007	0.08834844
72	0xbf2c59aa	-0.67324317
73	0xbde140e0	-0.10998702
74	0xbdd3be68	-0.103390515
75	0xbf3357d2	-0.7005588
76	0x3de90875	0.11378566
77	0xbf2ebc9e	-0.68256557
78	0x3d623785	0.05522873
79	0x3e506518	0.20351064
80	0x3ef3e13e	0.47632784
81	0x3c988fde	0.018623289
82	0xbdddf1d3	-0.1083714
83	0x3f1a4a66	0.60269773
84	0xbd09dc76	-0.033657514
85	0xbe8c8fb5	-0.2745339
86	0x3ed5cd73	0.41758308
87	0x3ef6c098	0.48193812
88	0xbea64381	-0.32473376
89	0xbe8739a5	-0.26411167
90	0xbf6e632c	-0.93120074
91	0xbe821d4b	-0.25412974
92	0xbeb9de16	-0.3630225
93	0x3ef30695	0.4746596
94	0x3b685af0	0.0035454594
95	0x3ebf89ee	0.3740992
96	0xbf0d7c3d	-0.552677
97	0x3ec51e96	0.38499898
98	0xbebc17bc	-0.36736858
99	0x3e03505b	0.12823622
100	0x3e07b06b	0.13250892
101	0xbe3f6eea	-0.18694654
102	0x3f01e72d	0.5074337
103	0x3cc72d5c	0.024313621
104	0x3e32cd13	0.17461042
105	0xbda5dced	-0.08098779
106	0x3d1eec41	0.038799528
107	0x3e5dd477	0.2166308
108	0xbd97e844	-0.07417348
109	0x3f16675a	0.5875145
110	0x3e8a9225	0.27064624
111	0x3e8a1481	0.26968768
112	0x3e8585e0	0.260787
113	0xbe5d0e03	-0.21587376
114	0x3e65929b	0.22419207
115	0x3c86b3a1	0.016443076
116	0xbf2319e4	-0.6371138
117	0xbe3ac572	-0.18239382
118	0x3b9ef0be	0.004850476
119	0x3e76779a	0.24069062
120	0x3d24199f	0.040063497
121	0xba670f28	-0.0008814209
122	0x3e871c11	0.263886
123	0x3e59553f	0.21223925
124	0xbf2bc14e	-0.67091835
125	0x3ee787d1	0.45220807
126	0xbe737b2e	-0.23777458
127	0xbf20d7a3	-0.62829036
128	0x3e344f0a	0.17608276
129	0xbebeec97	-0.3728988
130	0xbef18924	-0.47174942
131	0xbe945171	-0.28968385
132	0x3cb760c9	0.022385018
133	0xbe11dc09	-0.14244093
134	0xbe694ca8	-0.22783148
135	0x3edce804	0.43145764
136	0xbf17927b	-0.59207886
137	0xbe07b065	-0.13250883
138	0xbd369d73	-0.04458375
139	0xbe358313	-0.17725782
140	0xbeb1eb03	-0.34749612
141	0x3e56d436	0.2097939
142	0x3e8e5309	0.27797726
143	0xbe94c449	-0.29056004
144	0x3e88a424	0.2668773
145	0x3dae1e22	0.08501841
146	0xbd1cf705	-0.038321514
147	0x3e017b9f	0.12644814
148	0x3e6bce8a	0.23028007
149	0xbf199582	-0.59993756
150	0xbde7bb30	-0.11315
151	0x3e91d3eb	0.28481993
152	0xbf198528	-0.59968805
153	0xbea5592b	-0.32294592
154	0x3ea6819e	0.32520765
155	0x3de9dbaf	0.114188544
156	0xbecc42d1	-0.39894727
157	0xbf10a7d9	-0.56506115
158	0x3e0761c4	0.13220888
159	0xbed25d3b	-0.41086754
160	0x3cb4af42	0.022056226
161	0x3f1fc7e5	0.6241439
162	0x3cd11734	0.02552376
163	0xbdc7f769	-0.097639866
164	0xbd4f34e9	-0.05058757
165	0xbeb3517a	-0.350231
166	0xbf175541	-0.5911446
167	0x3ddf6f57	0.10909908
168	0x3e209846	0.15683088
169	0xbe4b0ef8	-0.19829929
170	0x3d80eaf2	0.06294812
171	0xbe168c90	-0.14702058
172	0x3df68614	0.12037292
173	0xbdb15a0f	-0.086597554
174	0xbf0ec710	-0.55772495
175	0x3f077245	0.52908736
176	0x3e000972	0.12503603
177	0x3e5fd476	0.21858391
178	0x3edbf592	0.42960793
179	0x3e7dca90	0.24784303
180	0x3eeb4d12	0.45957237
181	0x3eacee4f	0.33775565
182	0xbeaae79d	-0.33379832
183	0xbe887870	-0.26654387
184	0x3d0ffcca	0.035153188
185	0xbe0d786a	-0.13815466
186	0xbe025383	-0.1272717
187	0x3f01559b	0.5052125
188	0xbf1851eb	-0.59499997
189	0x3e84d955	0.2594706
190	0xbe3ecc65	-0.18632658
191	0xbe509a83	-0.20371442
192	0xbe9ec0c9	-0.31006458
193	0x3dca9bc0	0.09892988
194	0x3eb21fa8	0.34789777
195	0xbec1e880	-0.37872696
196	0xbedef209	-0.43544033
197	0x3ed8c5fe	0.42338556
198	0x3f0f5dbe	0.56002414
199	0x3e2f0df5	0.17095168
200	0x3cffc9c5	0.03122414
201	0xbd56f42a	-0.052478947
202	0xbf134a07	-0.5753483
203	0x3d9d605a	0.07684393
204	0xbeeafeaf	-0.45897433
205	0xbf4e5b42	-0.80608
206	0x3e63f6ab	0.22262065
207	0x3ea63021	0.32458594
208	0x3df57074	0.11984339
209	0xbede90f3	-0.43469962
210	0x3f21ce8d	0.63205796
211	0x3e6d172b	0.23153369
212	0xbe26ee30	-0.16301799
213	0xbe5fae93	-0.21843939
214	0x3f236433	0.63824767
215	0xbf32ea5a	-0.6988884
216	0x3eaf6f97	0.34264824
217	0x3ea7a344	0.3274175
218	0xbee100ab	-0.43945822
219	0x3f0e9a83	0.55704516
220	0xbe1ebea6	-0.15502414
221	0xbbecb3ca	-0.007223581
222	0x3e1e7b4f	0.15476726
223	0xbe23f239	-0.1601037
224	0x3eafd442	0.34341627
225	0xbefe54bd	-0.49674025
226	0x3e3df608	0.18550885
227	0xbe23613c	-0.1595506
228	0xbed81182	-0.42200857
229	0x3ce7f851	0.028316649
230	0xbd15fd93	-0.03661878
231	0xbe21b95d	-0.15793367
232	0x3e989fd7	0.29809448
233	0x3dfdd3e7	0.12393933
234	0xbf64d00f	-0.8937997
235	0x3e4e6d89	0.20158972
236	0xbed81ee1	-0.4221106
237	0xbe35cb4e	-0.17753336
238	0x3d8562b5	0.065129675
239	0x3e670f41	0.22564413
240	0x3cbb3243	0.022851115
241	0x3eeb7f02	0.45995337
242	0x3d0ef3c7	0.034900453
243	0xbe95fb9d	-0.29293528
244	0x3f15b7e0	0.58483696
245	0xbe44e31f	-0.19227265
246	0x3edb2bee	0.42806953
247	0xbed8fbae	-0.42379516
248	0xbe66bffc	-0.22534174
249	0xbeb000a4	-0.3437549
250	0x3e8e8013	0.27832088
251	0xbeeebf40	-0.46630287
252	0xbf08b2a0	-0.5339756
253	0x3e6a6e5f	0.22893666
254	0x3e4727b8	0.19448745
255	0x3f0f9477	0.56085914

lr1.bias f4 [32]
0	0x3e7d1a1f	0.24716996
1	0x3f14766a	0.57993186
2	0x3efd8083	0.4951211
3	0x3f2995f2	0.66244423
4	0x3eb83995	0.35981432
5	0x3edcf3a2	0.43154627
6	0xbe11bc5e	-0.14232013
7	0x3f2bb6e7	0.6707596
8	0xbe6679c2	-0.22507384
9	0x3f0ab084	0.5417559
10	0x3ea8bfd3	0.3295885
11	0x3e836cb7	0.2566888
12	0x3d2f031b	0.04272757
13	0x3f39c6c3	0.7256891
14	0x3f0b8d5d	0.5451258
15	0x3e3b7812	0.18307522
16	0xbe8f39c0	-0.27973747
17	0x3e9223ac	0.2854284
18	0x3ee5c6fb	0.44878373
19	0x3db21900	0.086961746
20	0x3ec92170	0.39283323
21	0x3f0e2aca	0.5553404
22	0x3eadf394	0.33974898
23	0x3e1ec590	0.15505052
24	0x3ee3de3f	0.44505498
25	0x3ec22796	0.37920827
26	0x3e0558dc	0.13022178
27	0x3ecdcaeb	0.40193877
28	0xbe6fb0db	-0.23407309
29	0x3e4a372b	0.19747607
30	0x3ed123c0	0.40847588
31	0x3d0db66e	0.034597807

lr2.weight f4 [16, 32]
0	0x3ec9388d	0.39300957
1	0x3ede194e	0.4337868
2	0x3e1db530	0.15401149
3	0x3ec154f9	0.37760141
4	0x3ec1f863	0.37884817
5	0x3f1561e1	0.58352476
6	0x3ebec55e	0.37259954
7	0x3e284b63	0.16435008
8	0x3da42b95	0.08016125
9	0x3ea090eb	0.31360564
10	0x3e8ac1e1	0.27101043
11	0x3e98301a	0.297242
12	0x3e9b2ac1	0.30306056
13	0x3eadd7ef	0.33953807
14	0x3ee277a3	0.442319
15	0x3e5dcc3b	0.21659939
16	0x3e58d091	0.21173312
17	0x3e8ecb3d	0.27889434
18	0x3e6456fa	0.22298804
19	0x3e9d16b8	0.30681396
20	0x3e62a1f4	0.22132093
21	0x3e9d0363	0.30666646
22	0x3eccf843	0.4003316
23	0x3eb1d140	0.34729958
24	0x3ebd2f50	0.3695016
25	0x3e24c3c2	0.160903
26	0x3eeaeb4f	0.4588265
27	0x3e635702	0.2220116
28	0x3e8347f4	0.25640833
29	0x3d0c9648	0.034323007
30	0x3ec6ad84	0.38804257
31	0x3eebe646	0.46074122
32	0x3ea39da2	0.31956202
33	0x3edf555c	0.43619812
34	0x3ec9e991	0.3943601
35	0x3e7893c5	0.2427512
36	0x3d8a6ef1	0.06759442
37	0x3f21a8ae	0.6314801
38	0x3edbd58a	0.42936355
39	0x3e4af02e	0.19818184
40	0x3e3f3422	0.18672231
41	0x3eb46802	0.35235602
42	0x3e86abbc	0.26302898
43	0x3da7a8a1	0.0818646
44	0x3edbff3f	0.42968175
45	0x3dc5c78c	0.09657201
46	0x3ec024cc	0.37528074
47	0x3e99a028	0.30005002
48	0x3eaab6b2	0.3334251
49	0x3e8cf014	0.27526915
50	0x3e6efb27	0.23337995
51	0x3ecc4b96	0.39901417
52	0x3e109219	0.14118232
53	0x3ee28f10	0.44249773
54	0x3e34a477	0.17640863
55	0x3eb7344b	0.35782084
56	0x3edf8163	0.43653402
57	0x3ea96a2d	0.33088818
58	0x3efa5337	0.48891613
59	0x3ec0acab	0.37631735
60	0x3e9dc027	0.30810663
61	0x3e403fd2	0.18774346
62	0x3e14a76c	0.14516991
63	0x3ee7fca3	0.45309934
64	0x3e5b6cdb	0.21428244
65	0xbdaf43d2	-0.085578576
66	0x3da6d362	0.08145787
67	0xbe429390	-0.19001603
68	0x3e105b58	0.14097345
69	0xbed20f5d	-0.41027346
70	0x3ec57d53	0.38572177
71	0xbeaf4ec7	-0.3423979
72	0x3ec8f11b	0.3924645
73	0x3de032cd	0.109471895
74	0xbe5e4076	-0.21704277
75	0xbe09385c	-0.13400406
76	0xbf2eaec1	-0.68235403
77	0xbe5cce9b	-0.21563189
78	0xbe94cdfe	-0.2906341
79	0x3e89fea2	0.26952082
80	0xbec0d3e3	-0.37661657
81	0x3d91f744	0.0712724
82	0xbe9dfe64	-0.30858147
83	0xbd35050f	-0.044194277
84	0x3f364354	0.71196485
85	0x3eb6893d	0.3565158
86	0x3f0e8bf2	0.5568229
87	0x3e46a8ea	0.19400373
88	0xbe2e299b	-0.17008059
89	0xbf0ed94b	-0.5580031
90	0x3e648bc4	0.22318941
91	0xbf1951c4	-0.5989039
92	0x3e3c58e4	0.18393284
93	0xbf3d1880	-0.7386551
94	0xbf4146a6	-0.75498426
95	0xbe60486b	-0.21902625
96	0x3e046883	0.12930493
97	0x3e895aea	0.26827174
98	0x3eaee699	0.34160307
99	0x3e1f8b50	0.15580487
100	0x3e997a76	0.29976243
101	0x3ef6f2bc	0.48232067
102	0x3f05818a	0.52150786
103	0x3eb6277f	0.35577008
104	0x3e0c9244	0.13727671
105	0x3ebcacc4	0.3685056
106	0x3ede0b19	0.43367842
107	0x3ecb8a1f	0.39753816
108	0x3eb49107	0.35266897
109	0x3da5c64f	0.08094465
110	0x3e8ddf51	0.2770944
111	0x3e44f92e	0.1923568
112	0x3e076593	0.13222341
113	0x3eabb443	0.33535966
114	0x3e9d21ec	0.30689943
115	0x3f091c37	0.5355868
116	0x3e191705	0.14950188
117	0x3e9d3266	0.30702513
118	0x3ee16a08	0.44026208
119	0x3d542812	0.051796027
120	0x3ed275aa	0.41105396
121	0x3ec5c07b	0.38623413
122	0x3ed240cf	0.4106507
123	0x3e96870e	0.29399914
124	0x3ed7a832	0.4212051
125	0xbccc1c2c	-0.024915777
126	0x3e0e05c8	0.13869393
127	0x3ee40c8e	0.44540828
128	0x3ed311da	0.41224557
129	0xbe5c2676	-0.21499047
130	0x3cac0f7f	0.021003483
131	0x3e610361	0.21973945
132	0xbe7a172d	-0.24422903
133	0xbd8a6602	-0.06757738
134	0x3efc317b	0.492565
135	0xbf3a790b	-0.72840947
136	0x3f207b65	0.62688285
137	0x3dc60b03	0.09670069
138	0xbd47ee82	-0.048811443
139	0xbf014710	-0.5049906
140	0xbce395ee	-0.027781453
141	0xbf20985f	-0.627325
142	0xbe8e8153	-0.27833042
143	0xbf362f23	-0.71165675
144	0xbf1590fe	-0.58424366
145	0xbcef3ad4	-0.029202856
146	0xbdc2d6d1	-0.09513629
147	0xbf6e7d1c	-0.9315965
148	0x3e073b3b	0.13206188
149	0x3e9fae48	0.31187654
150	0xbeb057d3	-0.34442005
151	0x3e701249	0.23444475
152	0x3e559189	0.20856299
153	0x3d0a268a	0.03372816
154	0x3e37c203	0.17945103
155	0xbe8bc561	-0.27299026
156	0x3ef2f84c	0.4745506
157	0x3e0773ec	0.13227814
158	0xbdc7d973	-0.09758272
159	0x3d839249	0.06424386
160	0x3e90fcae	0.2831778
161	0x3e73464f	0.2375729
162	0x3dfd1903	0.12358286
163	0x3ec36e60	0.38170147
164	0x3d8cdb18	0.06877726
165	0x3f051390	0.51982975
166	0x3e9ac1ed	0.3022608
167	0x3d042d33	0.032269668
168	0x3eb271ff	0.34852597
169	0x3dc46ff2	0.095916644
170	0x3e9479af	0.28999087
171	0x3e4c7883	0.19967847
172	0x3e77fa3b	0.24216549
173	0x3eb2745d	0.34854403
174	0x3ec6152f	0.38688037
175	0x3db94af6	0.09047501
176	0x3eccb893	0.3998457
177	0x3ea67b91	0.3251615
178	0x3e804574	0.2505299
179	0x3efcbcf4	0.4936291
180	0x3e0596d9	0.13045825
181	0x3e48624b	0.19568746
182	0x3e40b677	0.18819605
183	0x3e3ce5f0	0.18447089
184	0x3eccb9b0	0.39985418
185	0x3eb7dd72	0.35911137
186	0x3eda1788	0.42596078
187	0x3e86e42b	0.26345953
188	0x3ef1679e	0.47149366
189	0x3da23c9a	0.07921715
190	0x3eba4b3e	0.3638553
191	0x3ebc1277	0.36732838
192	0x3e453512	0.19258526
193	0x3ec956f8	0.39324164
194	0x3e458ec5	0.19292744
195	0x3e8a52b7	0.2701623
196	0x3eb5c0c7	0.3549864
197	0x3ea10a22	0.31453043
198	0x3f0e0d56	0.554891
199	0x3d84db83	0.06487181
200	0x3ebdce84	0.3707162
201	0x3e92d4fa	0.28678113
202	0x3ed38496	0.41312093
203	0x3eb40b57	0.35164902
204	0x3ed392f2	0.41323048
205	0x3e90d0bb	0.2828425
206	0x3edad7ae	0.42742676
207	0x3ead137f	0.33803937
208	0x3dec83a3	0.11548545
209	0x3e94abaa	0.2903722
210	0x3e5d33d8	0.21601808
211	0x3eb304b2	0.3496452
212	0x3e620ea9	0.22075905
213	0x3e767828	0.24069273
214	0x3e0de95b	0.1385855
215	0x3e960488	0.29300332
216	0x3e5c9863	0.21542506
217	0x3e47fbcb	0.19529645
218	0x3e87f94f	0.26557395
219	0x3e57ec4e	0.21086237
220	0x3eeb8c6d	0.46005574
221	0xbcdeb6a8	-0.027186707
222	0x3e0063ae	0.12538025
223	0x3eb7f875	0.35931745
224	0x3ec8aea7	0.3919575
225	0x3e83e8df	0.25763604
226	0x3e21350f	0.15742896
227	0x3e9e6f87	0.30944464
228	0x3d81b8c1	0.06334067
229	0x3ea0c778	0.31402183
230	0x3e8f65f8	0.28007483
231	0x3e8a6ba7	0.27035257
232	0x3e023be2	0.12718156
233	0x3e35998d	0.17734356
234	0x3dfa160f	0.122112386
235	0x3da3df47	0.08001571
236	0x3e098b4e	0.13432047
237	0x3ec83645	0.39103904
238	0x3e8a9a46	0.27070826
239	0x3e989822	0.29803568
240	0x3edba26e	0.42897362
241	0x3e381b1b	0.1797909
242	0x3eb90822	0.36139017
243	0x3ea4d6ca	0.3219512
244	0x3e255888	0.16147053
245	0x3eec8e6b	0.46202406
246	0x3e56e07e	0.20984074
247	0x3e06d94b	0.13168828
248	0x3e97959a	0.29606324
249	0x3e3ba580	0.18324852
250	0x3ea085db	0.31352124
251	0x3da3f5aa	0.08005841
252	0x3e96253a	0.29325277
253	0x3e41e7ce	0.18936083
254	0x3eddad47	0.43296263
255	0x3f019140	0.5061226

lr2.bias f4 [16]
0	0x3d119b77	0.035548653
1	0x3dc45a66	0.09587555
2	0x3ea6ccfc	0.32578266
3	0x3e406db5	0.1879185
4	0x3e32f9a2	0.1747804
5	0x3e9de8c2	0.30841643
6	0x3ea7f2e0	0.32802486
7	0x3e94c8c9	0.29059437
8	0x3e334197	0.1750549
9	0xbde8f84d	-0.113754846
10	0x3ea4be00	0.32176208
11	0x3d0aa50d	0.03384881
12	0x3e4e76e0	0.20162535
13	0x3d0bcd43	0.0341313
14	0x3e4fa227	0.202767
15	0x3e961c04	0.2931825

lr3.weight f4 [1, 16]
0	0x3ecae3ed	0.3962702
1	0x3eaf275c	0.34209716
2	0xbf869420	-1.0513954
3	0x3ed819bb	0.4220713
4	0xbf86c643	-1.0529255
5	0x3efbe144	0.49195302
6	0x3eeb8885	0.46002594
7	0x3f0354da	0.5130135
8	0x3e9fb666	0.31193846
9	0xbf8a072f	-1.0783442
10	0xbf923b38	-1.1424322
11	0xbfa9383f	-1.322029
12	0x3ef8565c	0.48503387
13	0xbf427f33	-0.7597534
14	0x3ed47a8b	0.41499743
15	0x3ee1c3bb	0.44094643
