07_deeplearning_pytorch/saved_models/my_model.pt (torch, 3559 bytes, 4 tensors)

weight f4 [4, 3]
0.2958567 -0.41400117 0.049075842 0.034641206 -0.40805024 0.3921709 -0.28861627 0.10180223
0.14791167 0.22509873 0.36208814 0.07967532
00000000: 887a 973e f6f7 d3be c003 493d f0e3 0d3d
00000010: f6eb d0be a0ca c83e 83c5 93be b07d d03d
00000020: 2876 173e 4880 663e 9e63 b93e d02c a33d

bias f4 [4]
-0.2631613 -0.5753073 0.12626076 -0.15285003
00000000: 14bd 86be 5747 13bf 804a 013e b884 1cbe

weight f4 [2, 4]
-0.40143013 -0.16712284 -0.1743679 -0.4492488 -0.17376548 0.3091873 0.2603007 0.3523782
00000000: 4088 cdbe 4022 2bbe 808d 32be f003 e6be
00000010: 94ef 31be cc4d 9e3e 2246 853e ea6a b43e

bias f4 [2]
-0.047346175 0.484039
00000000: 10ee 41bd f6d3 f73e
