07_deeplearning_pytorch/models/mnist_model.pt (torch, 449349 bytes, 8 tensors)

weight f4 [128, 784]
000000 b2 ec 4b bc 2e 88 fa 3c 7e d2 c3 bc 1c 40 36 3c
       -0.012446569 0.030582514 -0.023904081 0.011123683
000010 57 13 84 bc 80 2f d2 bb ce 86 f0 bc a8 72 72 3c
       -0.016122503 -0.006414354 -0.029361155 0.014797844
000020 e8 4a 94 3c f4 03 0a 3c c0 1f 68 3a 7c 5c 21 3c
       0.018102124 0.008423794 0.0008854829 0.00984871
000030 41 5c 61 3c 30 d6 ed 3c 32 83 1c 3d c2 45 13 3b
       0.013754905 0.029032797 0.038211055 0.0022471999
000040 aa b4 5a bc d8 5c 2e bc 9c 46 bd bb 7d 53 11 bd
       -0.013348738 -0.010642253 -0.0057762396 -0.03548001
000050 dc 2c bd bc ae a3 84 3c ec 04 fb bc fe 36 ec 3c
       -0.02309268 0.01619133 -0.030641995 0.028834816
000060 40 4f 3f 3a 80 40 a2 3c 53 87 d2 bc 2c 4c 11 bd
       0.0007297881 0.019806147 -0.025699293 -0.035473034
000070 a0 7b 3f 3b 33 08 be bc 28 8a 86 bb 61 48 f4 bc
       0.0029217973 -0.023197269 -0.004105825 -0.02981967
000080 3b d0 5c 3b 90 75 0c bb 8a f1 3b 3d bd ce 02 3d
       0.003369345 -0.0021432377 0.045884646 0.031935442
000090 9f 1c f9 3c b2 dd ad ba ec 12 80 ba be 01 4c bc
       0.030409155 -0.0013264923 -0.0009771264 -0.012451587
0000a0 ca 45 38 bd 74 cc 46 3d 20 ae d3 3d 14 a5 84 3d
       -0.04498843 0.048534825 0.10335946 0.06476799
0000b0 08 9d d5 3c fe 38 1d bd 20 ed 86 bc 51 e4 64 3b
       0.026075855 -0.03838443 -0.016470492 0.0034926126
0000c0 8f eb da bc 35 dd 3e bd 27 4e 3f ba 4b d4 80 3b
       -0.026723651 -0.04659768 -0.00072977174 0.0039315573
0000d0 3e 3c 9e bc 38 8a f6 3b d8 6e d2 3c c9 08 01 3d
       -0.019315835 0.007523801 0.02568762 0.03150252
0000e0 00 ef 7b 39 94 51 19 3c 2b 25 83 3b d0 92 03 be
       0.0002402626 0.009357829 0.0040022335 -0.12848973
0000f0 56 5c fe bd a3 ab a6 bc f5 d6 80 bb ba 4c a7 3c
       -0.124199554 -0.020345515 -0.003931875 0.020422328
000100 87 bc 13 bd 5b 48 a8 bc b2 dd 07 3d e8 ea ae bd
       -0.036068466 -0.020542314 0.03317041 -0.085408986
000110 8c 29 ee 3d bb 9d 13 3e 16 fa 0e 3d 1d fc 86 3d
       0.11629018 0.14415638 0.03490647 0.065910555
000120 86 1f 24 bd 05 5d 65 bd 30 84 db 3d 7c 16 1d 3e
       -0.040069126 -0.055996913 0.10718572 0.15340608
000130 6e d4 2b 3d d9 af 7d 3d d7 bf e5 3c 41 08 8f bd
       0.041950636 0.06193528 0.028045578 -0.06983996
000140 5a ba 90 3d 8b 44 a3 3d f8 1e 52 3c 40 d8 a6 3b
       0.07066794 0.07972058 0.012824766 0.005091697
000150 08 16 d6 3c ca 92 e9 bc fb 3b 4d 3e aa 55 9a bd
       0.026133552 -0.028512377 0.20042412 -0.075358704
000160 82 c3 05 be 5f df 0a be d3 a6 c5 bd b4 20 25 be
       -0.13062862 -0.13561772 -0.0965096 -0.16125757
000170 d6 1d 30 be 14 0d d4 bd f1 bd 2f be 1f 94 55 be
       -0.17198882 -0.10354057 -0.171623 -0.20857285
000180 3f 1c 8e 3b 97 6a a3 bc d9 93 3d be c8 c0 26 be
       0.0043368633 -0.019948287 -0.1851343 -0.16284478
000190 e4 d6 52 bd 7a 2f 96 3d 05 c9 a5 bd 97 a7 a2 3c
       -0.051474467 0.07333274 -0.08094982 0.019855304
0001a0 d1 a5 ff bd db b9 07 be 29 97 7c 3d f9 ee 7f 3e
       -0.12482799 -0.13254492 0.061667595 0.24993505
0001b0 30 25 f8 3d 7b fa 07 be a2 e1 2d be d0 0b f5 3b
       0.12116468 -0.13279144 -0.16980603 0.007478215
0001c0 f8 86 53 3c 7e d9 93 3b b5 e8 45 3e b9 ca 6b 3d
       0.012910597 0.004512011 0.19327052 0.05756638
0001d0 0f 10 96 bd 61 58 9c bd 5c 88 18 bc fa bb 3e bd
       -0.07327282 -0.076340444 -0.009309854 -0.046565987
0001e0 3e 88 e0 bd a8 c2 b6 bb d0 f2 c8 3c dc 3c 19 3d
       -0.10963486 -0.005577404 0.024529845 0.037411556
0001f0 b4 a4 54 3d 26 5f 0e 3d e9 c8 10 3d 2c 04 50 bd
       0.051914886 0.03475871 0.035347853 -0.05078523
000200 84 6d 5b bd 7d fe c0 3d 10 6a bc 3a 2f 14 91 bb
       -0.05357124 0.0942354 0.0014374871 -0.004427455
000210 6d 84 87 bd aa e3 19 bd 8a 11 53 bb bb d4 ad 3d
       -0.06617055 -0.037570633 -0.00322065 0.08487841
000220 a4 55 c6 bc fa 52 da bd e2 fe 41 be 1e 32 53 be
       -0.024210759 -0.10660358 -0.18944886 -0.20624587
000230 68 67 78 3c 8e 9e e5 bc a6 2b 1f 3e 0a f0 85 bc
       0.015161373 -0.028029706 0.15543994 -0.016349811
000240 d5 f7 d1 bd 56 d0 e3 bc 6c 9e 24 3c 8c bc 97 bd
       -0.10252348 -0.027809303 0.010047536 -0.07409009
000250 1a 88 4c bd ce e7 87 3d 54 34 fe 3d 86 a5 3c 3e
       -0.049934484 0.0663601 0.124123245 0.18422517
000260 45 46 16 3e 85 37 97 3d a1 88 88 3c 82 dd c9 bd
       0.14675243 0.073836364 0.016666712 -0.098567024
000270 1b 71 9b bc 9d ab 6d bd 07 b2 6f bd a0 fc 92 bd
       -0.018974831 -0.05802499 -0.05851939 -0.07177091
000280 c4 ea f9 bd 73 eb 8b 3d 37 78 0d 3e 26 cb 86 3d
       -0.12202981 0.06832018 0.1381539 0.06581716
000290 df e8 0b 3e 6d b0 09 ba 35 67 7d be df ed 2c be
       0.13663052 -0.0005252425 -0.24746402 -0.16887616
0002a0 08 13 f8 bc f8 31 ca bc 76 50 be bc 7d f4 0c 3d
       -0.030282512 -0.02468203 -0.023231726 0.03441285
0002b0 e5 e3 ba bc 84 ff 3b bd 92 66 f9 bc 22 7d ca bc
       -0.022813747 -0.045897976 -0.030444417 -0.024717871
0002c0 47 32 8c bd 05 e7 75 bd ed ad 5a 3c 95 b4 42 3e
       -0.06845527 -0.06003477 0.013347131 0.19014199
0002d0 56 6a 4c 3e 5b 42 dd 3d 80 e5 b9 3b 5a a2 b1 bd
       0.19962439 0.10803672 0.0056731105 -0.08673544
0002e0 25 cc d3 bd 32 ec 74 bd fb a5 7b 3c 9a bf c7 3c
       -0.10341672 -0.059795566 0.015359397 0.024383355
0002f0 16 df 67 bd 52 5d d3 bb e6 37 d9 3d 34 8b a6 3d
       -0.056609236 -0.0064503336 0.10606365 0.0813202
000300 59 00 61 bd 86 80 ce bd 53 aa 8b bd 7f bf 84 bd
       -0.054931972 -0.10083108 -0.06819596 -0.064818375
000310 2b 00 0c 3d 88 22 01 3c 93 41 08 3c e9 f6 56 bc
       0.034179848 0.007881768 0.008316415 -0.013120391
000320 d5 73 84 bd 0a b0 2b be 5f e9 bb 3b 01 67 78 3b
       -0.06467406 -0.16766372 0.005734607 0.0037903192
000330 0e 6c 9f bd 3e 26 75 3d 08 a8 fe 3d 45 1f b8 3d
       -0.07784282 0.059850924 0.12434393 0.08990339
000340 65 d6 8d 3d 17 02 0a 3c 3a 47 7f bd 11 2a 05 be
       0.06925658 0.00842335 -0.062323786 -0.13004328
000350 bb 19 13 be 6e 76 e5 3c b3 ae 46 3e bc 2e d1 3d
       -0.14365284 0.028010573 0.1940258 0.10213992
000360 9e ad d2 3c f1 c9 be 3d aa e2 06 3e 19 58 c1 3d
       0.025717553 0.09315861 0.13172403 0.094406314
000370 ae 80 5b 3c 8f 99 8f 3c d9 94 66 3a f6 d6 8f bd
       0.013397379 0.017529277 0.0008795984 -0.070234224
000380 50 48 7c 3e 2c 59 f9 ba 32 2b 7d bc 53 00 5d 3e
       0.2463696 -0.0019023768 -0.015452193 0.21582155
000390 ca 87 8c bd 2d fc ba bd a0 da a1 3d 24 fd e1 3d
       -0.06861837 -0.0913013 0.079030275 0.11034611
0003a0 44 cd 20 bd b3 1f a0 3d 20 e7 81 3d 79 29 36 3d
       -0.039258257 0.07818546 0.06342912 0.044473145
0003b0 d4 61 0a 3e 7a c9 03 3d 99 39 2f bd 47 e4 e3 bd
       0.13513881 0.032174565 -0.04277954 -0.11127525
0003c0 2f 4f 0f be 5c ee 8a 3d f4 cb 21 3e 33 c9 01 3e
       -0.1399505 0.06783745 0.15800458 0.12674408
0003d0 e1 79 c8 3d f7 b6 4f bc a5 87 f8 3d 20 9a 8a 3e
       0.097888716 -0.0126779 0.12135247 0.27070713
0003e0 47 31 7b 3d b3 ce 24 bc ce f2 3c 3e 4c eb 7a 3c
       0.06132629 -0.010059047 0.18451998 0.015314888
0003f0 14 b4 17 3d 50 bc b4 3d 5b f0 ec 3a 6a ae 41 3e
       0.03703697 0.0882498 0.0018077003 0.1891419

bias f4 [128]
000000 55 f9 9d bb 2c 9c 7e 3d 18 10 4d bd 1b df a6 3d
       -0.0048209825 0.062160656 -0.050064176 0.08148023
000010 03 05 79 bc 33 63 0f 3d ad 80 ee 3d d4 bf 26 3e
       -0.015198949 0.035006713 0.11645637 0.16284114
000020 8d b6 ef 3d 60 94 bb b9 9c 8a e5 bb dd a1 be 3d
       0.11704741 -0.00035777967 -0.007005049 0.09308217
000030 b5 42 68 bd 6c cb c2 bb d4 d7 8f bd 12 2a 1b bd
       -0.05670424 -0.00594466 -0.07023588 -0.03788192
000040 ff 31 ad 3d 98 0f 2f 3d a4 4f 01 bb 68 23 a6 bd
       0.084568016 0.04273948 -0.0019731307 -0.08112222
000050 0d 56 ac 3d ce 90 02 3e 4d a1 9a 3d 35 c0 b0 3c
       0.084148504 0.12750551 0.07550297 0.021576026
000060 56 9c 0a 3d 92 fd d6 3d 63 89 65 3d 53 aa e0 3d
       0.0338405 0.104975834 0.056039225 0.10969987
000070 96 8c 61 bc 6a 2f f9 3a 63 bd ef 3d 7a 40 b8 3b
       -0.013766428 0.0019011323 0.117060445 0.0056229206
000080 0b 14 ff 3d 77 be 33 3e 2b 00 b4 3d 95 2f 9a 3c
       0.12454995 0.17553125 0.087890945 0.018821517
000090 9e 26 0c 3d b4 68 80 3b 95 b1 7b bc 3a ea ab 3d
       0.034216516 0.0039187316 -0.015362163 0.083942845
0000a0 57 fc 36 3e 52 68 7f 3d c9 f1 27 be 90 34 44 bc
       0.17869698 0.062355347 -0.16400827 -0.0119754225
0000b0 47 a1 71 3d c8 8c b0 3d b1 40 f4 ba ce 3c 80 3c
       0.058991697 0.08620602 -0.0018635002 0.015653994
0000c0 9b 04 91 bc 64 56 b2 bb 2f 6b 0a be 8d 85 ca bd
       -0.017702391 -0.0054424275 -0.1351745 -0.09888754
0000d0 8d 0f d3 3d 70 34 ac b9 d4 c1 8f 3d bb c9 89 3c
       0.103057005 -0.00032845465 0.07019392 0.016819825
0000e0 2b 0f 1c 3e 88 67 fd bc a9 ae d6 ba 55 40 8f 3d
       0.15240161 -0.030933157 -0.0016378957 0.06994692
0000f0 fc 9a b7 3d 4e 59 0a 3e 72 b2 35 bd c1 87 61 bc
       0.08965108 0.1351063 -0.04435963 -0.013765276
000100 d5 7b cf 3d 64 d8 bb 3d 5c f4 fc bc b4 3a 0b bd
       0.10131041 0.091721326 -0.030878238 -0.03399153
000110 16 b8 89 3c 89 d7 b1 3d ea fe 20 3c 59 fb 14 bd
       0.016811412 0.08683688 0.009826401 -0.036372516
000120 5d 29 b7 3d bd 71 e1 bc 7c 9a 57 bd 0a c2 ed bc
       0.08943436 -0.027520055 -0.052637562 -0.02902319
000130 44 7b 92 3d f1 10 fc 3d d7 23 cb 3d ec e4 d2 3c
       0.07152417 0.12307919 0.09918945 0.025743924
000140 b6 55 e4 3d fd c9 12 3e 88 aa 8b 3d 50 27 8d bc
       0.111491606 0.14334865 0.06819636 -0.01723066
000150 b0 d1 2e 3e 57 25 af bd 98 66 1c 3d 2b e6 22 3d
       0.17072177 -0.08552044 0.03818378 0.039770287
000160 09 4c 03 3d fc f9 14 3d 51 04 cd 3d 72 45 b0 3d
       0.032054935 0.036371216 0.10010589 0.08606996
000170 3d d3 c7 3d 30 19 7b 3d a8 a3 bb 3d 56 e4 86 3d
       0.097570874 0.061303318 0.09162074 0.065865204
000180 15 13 5a bd 5d a9 67 3d c4 b3 83 bd 9a c2 e4 3c
       -0.053240854 0.056558 -0.06430772 0.027924825
000190 3c 74 d5 3d 07 79 d7 3d 52 3f 3c 3d 46 cb a8 bc
       0.104225606 0.10521131 0.045958824 -0.02060474
0001a0 0a 3e 27 3b 71 bb b1 3d e4 a4 06 3c 8b c4 24 3d
       0.0025519156 0.0867833 0.008218024 0.0402265
0001b0 87 b2 99 3d 2b 16 3e 3e bc e5 09 3d 06 6c ba 3c
       0.075047545 0.18563144 0.033666357 0.022756588
0001c0 bc 92 70 bd 16 82 24 3d 9c 7f 91 3d e7 7a 88 bd
       -0.058733687 0.040163122 0.07104418 -0.06664067
0001d0 5f 35 63 3c a7 67 e5 3d 5f 72 e4 3d 73 60 09 bd
       0.013867705 0.11201411 0.11154627 -0.033539247
0001e0 ba 5d 9a bd 6e 37 2c 3d ea 2e ed 3d 88 cc ed bd
       -0.07537408 0.04204505 0.11581214 -0.11611277
0001f0 04 07 ab bd 7e 14 45 3d 7b 01 94 3d f8 97 f8 3c
       -0.083509475 0.048115246 0.07226845 0.030345902

weight f4 [64, 128]
000000 9c 48 29 3e 2b 84 a5 3d c2 76 a5 bd c4 60 c8 be
       0.16531605 0.0808185 -0.08079292 -0.39136326
000010 c7 52 84 3d 8b 1f 90 3d a9 31 8d 3d b0 a3 34 3e
       0.06461101 0.07037266 0.068942375 0.17640567
000020 a7 3b 11 3e e2 8b 7d bd b8 10 1e be 58 15 80 bd
       0.14182912 -0.06190098 -0.15436065 -0.06254071
000030 7e 36 df bd 0b 78 26 bd 3e 4b 9c be 08 56 15 3e
       -0.108990654 -0.040641826 -0.30526155 0.145836
000040 f4 19 de bb ef 17 dc 3d c5 38 2d 3e 41 b3 6c 3e
       -0.006777996 0.107467525 0.16916187 0.23115255
000050 e3 16 6c 3e 7e 1f 18 3e 8c b6 40 3e ba 77 87 be
       0.23055606 0.14855763 0.18819636 -0.26458532
000060 1f 3e d9 bd 5e 72 a1 3c 41 d4 87 3d 4f ba 3b be
       -0.10607552 0.019707855 0.06632281 -0.1833279
000070 ef 6e 2a 3d 0f f1 b6 3d 54 ee 2d 3d 53 8a 8d 3d
       0.0416097 0.08932697 0.042463616 0.06911149
000080 2d f1 d5 3b d3 97 ae bd 74 e5 5d 3d 54 92 5a be
       0.0065289945 -0.08525052 0.0541739 -0.21344882
000090 4c d1 ba 3d d8 f8 4a be 96 5d 34 3d 7d 85 85 3e
       0.091219515 -0.19821489 0.044034563 0.26078406
0000a0 43 08 a4 3d b4 8e e0 bc 48 4d d7 bd 37 e5 2d 3e
       0.08009388 -0.027411796 -0.10512787 0.1698197
0000b0 46 33 7d be 4b 60 c6 3d 20 74 28 3e f9 99 e0 3d
       -0.2472659 0.09686335 0.16450548 0.10966868
0000c0 7e af b1 3e 88 4c 48 3d 11 c1 6d be b5 8d d2 3d
       0.34704202 0.04890111 -0.2321818 0.10280935
0000d0 a2 36 ed 3d fb 1d f0 3b 3b e9 49 bc 68 1d 85 3d
       0.11582686 0.0073277927 -0.012323673 0.064997494
0000e0 83 fb 60 3c fa 1e d0 bc 37 91 94 3e 75 07 21 be
       0.01373184 -0.025405396 0.2901704 -0.15725501
0000f0 ea 22 c2 3d ed 54 a6 3d 8d 1a 12 3e 4d 82 eb 3d
       0.094793156 0.08121667 0.14267941 0.11499462
000100 6f b2 1d 3e 4b 7b 0f 3e f3 71 59 3c f0 64 e3 3d
       0.15400098 0.14011876 0.0132717965 0.11103237
000110 67 35 1a be d3 20 cf 3d 93 cb 99 3d 05 16 34 be
       -0.15059434 0.101136826 0.07509532 -0.17586525
000120 99 4d e3 3d 85 fe 8e 3d 72 f7 45 be 89 99 a6 bc
       0.11098785 0.069821395 -0.19332674 -0.020336883
000130 ab de 4e 3e 65 d6 94 3d b5 9a e3 bc 71 d0 9d 3d
       0.20202129 0.07267455 -0.027783731 0.07705773
000140 de 51 02 3e db 39 48 be 5f 0c 36 3d 2e 5b fd be
       0.12726542 -0.1955332 0.04444539 -0.49483627
000150 59 8d 54 3d 98 5d 99 3d a6 cd 77 3e 99 fc 50 be
       0.051892612 0.07488555 0.24199542 -0.20408858
000160 77 a9 19 3e 88 bc 21 3d 03 1b 06 3e c1 a0 1a 3d
       0.15006052 0.039486438 0.13096242 0.037750963
000170 dc 4c e7 bc f3 dd ad bc 8b 5c 94 bc 69 ce 20 3d
       -0.028234892 -0.021223998 -0.018110534 0.039259348
000180 66 06 68 3e f5 a9 d2 3d da 49 32 be 65 37 de 3c
       0.22658691 0.10286323 -0.17410985 0.027126024
000190 3a 01 83 3d 80 02 f8 bd ac 1d ab 3d dd c7 9e 3e
       0.06396718 -0.12109852 0.08355269 0.3101186
0001a0 e7 36 db 3e cc 69 30 3e 4c 71 4f be c5 2f 8e bc
       0.42815325 0.17227858 -0.20258063 -0.017356763
0001b0 62 a7 df 3d 56 4e 87 3d 9b 95 26 bd 9f 09 2d 3e
       0.109205976 0.06606738 -0.04067002 0.16898201
0001c0 bf 0b c8 3c 93 e4 dd bc f3 53 1e bd a0 a7 ea 3e
       0.024419663 -0.027086532 -0.03865428 0.45831013
0001d0 f7 3d e8 bd 67 ac 9d 3e 41 6e f2 bc 00 9f 46 bd
       -0.11339944 0.30795595 -0.029593589 -0.048491478
0001e0 ca dd 9f bd 79 ce 93 bd 0a 1d 1f bb c9 8a 10 3e
       -0.07805975 -0.07217116 -0.0024278783 0.14115442
0001f0 70 45 4c 3e 6e d2 57 be e1 20 4a bd d7 66 55 be
       0.19948363 -0.21076366 -0.049347762 -0.20840012
000200 95 0c a4 3b 1e 4d d2 3d 10 4b f3 bd 52 80 57 3e
       0.0050063827 0.10268615 -0.118795514 0.21045044
000210 94 bb 14 3e bf a6 94 bd 9b e4 f6 bd 26 3c 8f bd
       0.1452468 -0.07258367 -0.12055322 -0.06993894
000220 2d 19 32 3c 8a e2 78 3c 1b c3 d9 3d 30 ff 35 3c
       0.01087026 0.01519073 0.106329165 0.011108205
000230 eb 0d f6 3d 2d 40 34 3e 2e e4 0a 3e ae 0d f5 3d
       0.120143734 0.17602606 0.13563606 0.119655
000240 9a d1 3c 3d 79 e1 a2 bc be b2 7b 3d c0 14 96 3d
       0.04609833 -0.019882904 0.06144976 0.073281765
000250 4a 3e 75 be 8c 55 39 bd f2 87 37 3d 25 8a 7a 3d
       -0.23949543 -0.0452476 0.044807382 0.0611669
000260 da c3 ba 3b de ae 73 3d 29 c9 29 3e 3a f4 b2 3c
       0.005699617 0.05949294 0.16580643 0.021844972
000270 80 74 1f 3d 45 34 25 3e 98 0c b8 3c 17 f1 e0 3e
       0.038929462 0.1613322 0.022466943 0.43933937
000280 f3 c9 7e 3a ec 6e 04 be 46 27 90 bc 11 b0 f8 bd
       0.0009719424 -0.12932938 -0.017596852 -0.12142957
000290 48 cb eb bd fd 7a 9a 3e 7c 48 6f be c5 4a 39 3e
       -0.11513382 0.30171958 -0.23367494 0.18094929
0002a0 dc 72 f9 3d c8 8e c2 bd 34 73 71 3e 64 ae 5e be
       0.12180111 -0.094998896 0.23579103 -0.21746212
0002b0 04 fb 85 3e 40 2f fe 3d da f9 79 be db 1a 90 3c
       0.26168072 0.12411356 -0.24411717 0.01759093
0002c0 5e 97 c8 3d 11 c0 1f be 9d 40 24 3e 32 21 bb 3e
       0.09794496 -0.15600611 0.16040273 0.36548764
0002d0 15 ea 22 3e e6 37 5d be 3b 43 b2 3d e5 05 98 be
       0.15909608 -0.21603355 0.087042294 -0.29691997
0002e0 ef 7a a1 bd 6f 5b f4 bc cb 0c 96 be f1 75 0a bd
       -0.07884776 -0.029828755 -0.29306635 -0.033803884
0002f0 21 22 11 3e ca a5 36 3e f0 f9 56 3d f7 d4 23 3e
       0.14173175 0.17836681 0.052484453 0.15999208
000300 e0 12 f2 3a 40 d6 fa bc cd c3 24 bd a0 cd a4 bd
       0.001846876 -0.03061974 -0.040225793 -0.08047032
000310 ec a3 d1 bc 2d e1 8a bd 58 e1 99 3c f1 4d 80 3e
       -0.02559086 -0.0678123 0.01878421 0.25059465
000320 d7 a1 08 3e bc e5 40 bc 20 88 1f 3e ec cb 95 bd
       0.13342987 -0.011773523 0.15579271 -0.07314286
000330 5c 1d de 3d 47 dc 59 bc 3b 6a 1d be dc 76 4e bd
       0.108454436 -0.013297147 -0.15372555 -0.050406322
000340 86 27 6c bd e3 b0 af 3c 0a d3 90 bd 4f 2c 2b 3e
       -0.05765488 0.02144665 -0.070715025 0.16716121
000350 d8 ff aa 3d a8 70 8d 3c cd 03 b5 bd 46 3e aa bd
       0.083495796 0.017265633 -0.088386156 -0.08312659
000360 5b 67 75 bd 92 1a 51 3c 5d 15 50 3c ba 4f af bd
       -0.05991302 0.0127626825 0.012700406 -0.085601285
000370 fc 0a 5e 3d 52 f8 3b be 77 02 f5 3d a1 ef 2c bc
       0.054209694 -0.18356445 0.11963361 -0.010555179
000380 c4 47 12 be 44 5e 81 3e 67 b5 23 3e d2 a7 b0 3c
       -0.14285189 0.2526723 0.15987168 0.021564398
000390 3a e0 3f bd 65 03 f8 bd e0 7a b5 3e 3c 44 85 3b
       -0.0468447 -0.121100225 0.3544531 0.004066972
0003a0 21 51 5c 3e 98 a0 b6 3b 49 c0 4a bc 36 29 e6 3c
       0.21515323 0.0055733435 -0.012374946 0.028095823
0003b0 81 da 20 3e c1 fa 52 3e d7 05 8a 3c a2 bb 89 bd
       0.15708353 0.20603468 0.016848488 -0.06725241
0003c0 d6 5e 9c be d7 9a 0d 3e 63 a6 b4 3b e0 4f e2 3d
       -0.30541104 0.13828598 0.005512999 0.11050391
0003d0 ad 63 29 be 7c bc 62 3e a1 7c 39 3e 0c 59 e0 bd
       -0.1654193 0.22142214 0.18113948 -0.10954484
0003e0 ef 53 50 be c7 21 d7 bd 75 d0 13 ba d6 b4 52 3e
       -0.20344518 -0.105044894 -0.00056386675 0.20576796
0003f0 0f 2c 27 be 58 a9 19 3e cc df 88 3d 33 d7 84 bd
       -0.16325401 0.15006006 0.06683311 -0.064863585

bias f4 [64]
000000 ab 50 8d 3d 1c 5e ef 3c b5 08 db 3d a3 c1 87 bd
       0.06900152 0.02921968 0.1069502 -0.0662873
000010 70 75 49 3e 30 fe 0e 3e 61 44 43 3e eb b6 74 3d
       0.19673705 0.13964152 0.19069053 0.059744757
000020 06 b0 83 3c b5 82 60 bc 52 a6 86 3d 42 ac 49 bd
       0.016075145 -0.013703038 0.06574692 -0.049236543
000030 62 11 48 3e e5 9f cc bc 22 9f 35 3e f9 e1 8e bd
       0.19537881 -0.024978587 0.17736486 -0.069766946
000040 f4 31 84 3b a1 f2 a6 bd 6f 22 96 3d b0 ad c9 3d
       0.004034275 -0.081517465 0.073307864 0.098475814
000050 41 fb 02 be 27 3f 87 3d 2d 5d 13 3e 4d 55 e6 bd
       -0.12791158 0.06603842 0.14391012 -0.112467386
000060 e9 1e 20 3e 20 02 9c 3d dc 89 b5 3d a6 8d bf 3d
       0.15636791 0.07617593 0.08864185 0.09353189
000070 29 18 17 bd 43 e8 ff bd 6c bd 1c bd 6e af 1c be
       -0.036888275 -0.12495472 -0.038266584 -0.15301296
000080 11 dd b6 bc 0a a3 bd 3d 7c b6 d2 3c 85 bf cc 3d
       -0.02232221 0.09259613 0.025721781 0.09997467
000090 3d d0 8e bd f1 e7 ba bd 53 61 86 3d 0e 56 56 3d
       -0.06973312 -0.091262706 0.06561532 0.052328162
0000a0 03 26 b0 3d 33 52 93 3d c2 93 17 bd 84 4c 51 3d
       0.08601 0.07193413 -0.037006147 0.05109836
0000b0 4d d0 9d 3c f9 91 83 bd 95 28 ca 3c 9d be 2c bd
       0.019264365 -0.064243264 0.024677554 -0.04217397
0000c0 d0 52 de 3d c1 91 e1 bd 34 93 3e 3d cc 9f 86 bd
       0.10855639 -0.110141285 0.046527103 -0.065734476
0000d0 87 9d 0a 3e 74 32 2b 3d 1e 07 92 3d 88 68 d5 3c
       0.13536654 0.041796163 0.07130264 0.026050821
0000e0 78 e6 1a 3d 14 11 a6 bc 11 fe d2 3b cc 13 98 bb
       0.03781745 -0.020271815 0.0064389785 -0.004641032
0000f0 da 55 b3 3d 1f 81 00 3e 93 a4 67 bc 7a fa 95 bd
       0.08756609 0.12549256 -0.014138359 -0.07323165

weight f4 [32, 64]
000000 32 fa d8 bd a3 7c ec 3d fe 69 27 3e 09 e1 f2 3c
       -0.10594596 0.1154721 0.16349027 0.02964832
000010 df a4 15 3e 06 ed e0 3b cc 35 b2 3d fa 79 eb 3d
       0.14613675 0.006864193 0.08701667 0.114978746
000020 92 42 82 3e 96 ce fd 3b db 21 87 3d db 43 81 3d
       0.25441414 0.007745574 0.06598254 0.063117705
000030 0d 6e 10 3e 0e 50 fd 3d 92 90 47 bc 7a 24 17 3e
       0.14104481 0.12368785 -0.012180464 0.14760008
000040 34 8e 3b be 2c d8 d0 bc 36 43 f7 3d 72 10 37 be
       -0.18315965 -0.025493704 0.12073366 -0.17877367
000050 8c 3d 29 be 83 e5 96 3e 1e b2 02 3e 85 70 68 be
       -0.16527385 0.2947198 0.12763259 -0.22699173
000060 e6 da 1a 3c 6b 8d d3 3d da e2 72 3e 14 72 64 3c
       0.0094516035 0.10329708 0.2371935 0.013943214
000070 73 b1 78 be 33 1d 44 be 16 5c 2e bd 6a 8e 71 be
       -0.24286442 -0.19151764 -0.04256829 -0.23589483
000080 3c 6e 8b be 81 f4 7e 3d 4c fd 49 3e fa 26 14 be
       -0.2723254 0.062244896 0.19725531 -0.14467993
000090 6c ac b6 bd 49 ba 9e 3d 9d 78 1a be ce 7e 05 3e
       -0.089196056 0.07750375 -0.15085073 0.13036653
0000a0 dd 01 57 3e b5 6f 05 3e a7 fe 7c be 55 62 6e 3e
       0.20996805 0.13030894 -0.24706517 0.23279698
0000b0 5c fd 47 3e 02 f7 91 be 62 7f dd bd b1 ca 8e 3b
       0.19530243 -0.28508765 -0.10815312 0.004357659
0000c0 00 1d fa bd 3b 9c 85 be 3d 95 39 bd e4 99 bd 3d
       -0.122125626 -0.26095757 -0.04530834 0.09257868
0000d0 e8 45 97 bd 15 e6 d8 3c 22 5d a4 3e f5 38 94 3d
       -0.073863804 0.0264769 0.32102305 0.07237426
0000e0 b3 d1 23 be 2f cb 6c 3e c5 9d 99 bb 1e 9b 20 3e
       -0.15997963 0.23124383 -0.004687997 0.15684173
0000f0 06 40 5e 3c fc 45 3b be 86 3f 3b 3e 34 64 9c bc
       0.013565069 -0.18288416 0.18285951 -0.01909075
000100 b0 d9 b4 bc 2b f0 1f bd e1 19 ce 3d 11 f4 84 3e
       -0.022076458 -0.0390474 0.1006353 0.25967458
000110 f5 89 ee bc 22 f2 37 3d 16 43 a2 3d 38 6e e5 bc
       -0.029118517 0.04490865 0.07922952 -0.028006658
000120 49 31 82 be ea b0 98 3e ee 8f 89 3c 46 74 ed bd
       -0.25428227 0.29822475 0.016792264 -0.11594443
000130 90 4b c1 bd 47 27 b8 3d 4f 1f 05 3e a6 d8 98 3b
       -0.094382405 0.089918666 0.13000225 0.0046644984
000140 02 44 02 3e 21 83 dc bc b0 bd a4 3e 82 a8 77 be
       0.12721255 -0.026917996 0.3217597 -0.24185374
000150 58 f6 cf 3d 17 cf 03 3e e9 71 50 3d 76 ed 95 3e
       0.10154408 0.12871967 0.050889883 0.2928273
000160 d7 d9 7d bd 65 a5 0f bd 71 2d b5 bc 6e 96 65 3e
       -0.061975326 -0.035069842 -0.022116395 0.22420666
000170 45 6a 93 bc f0 3f 4a 3e 31 1b bf 3d 74 43 8a 3e
       -0.01799501 0.19750953 0.09331358 0.27004588
000180 13 9b 2e be a1 8b 32 be 53 3e f2 bd c1 e6 ef 3d
       -0.17051344 -0.17436077 -0.11828294 0.11713935
000190 9e 06 17 be 13 74 4d 3d c4 67 5d be 7c 14 11 3e
       -0.14748618 0.050159525 -0.21621615 0.1416797
0001a0 b1 42 0b be 20 12 12 3d 7c dd 81 3d 8f b6 f3 3d
       -0.1359966 0.035661817 0.06341073 0.11900055
0001b0 c6 ad 0e be 03 31 95 bc f7 e2 00 be 13 d3 54 3e
       -0.13933477 -0.018211847 -0.1258658 0.20783643
0001c0 82 e5 a7 bd 6f 3b 4f 3e cb 00 04 3e 11 3f a3 3d
       -0.08198072 0.20237516 0.12890927 0.07971013
0001d0 3d 33 86 bd d2 73 0a be 1d 07 07 3c bc 26 b2 bd
       -0.06552742 -0.13520744 0.008241442 -0.08698794
0001e0 4d fd 90 3e 9d 19 5f be 14 06 6e 3e 40 8d b4 bb
       0.28318253 -0.21787114 0.23244506 -0.0055100024
0001f0 41 1f a2 3e 48 58 5e be eb b4 e7 bd e5 8a 96 bc
       0.3166447 -0.21713364 -0.11313804 -0.018376777
000200 a9 c7 fe 3d b2 89 97 3e 0e 21 84 bd 30 64 d6 bd
       0.12440426 0.2959724 -0.06451617 -0.10468328
000210 e5 8b ff bd bb 4b 1b 3e 7d fd ca 3c 84 fe 7c bc
       -0.12477855 0.15165608 0.024779076 -0.015441541
000220 73 b4 d3 bd 15 5b ac 3e 31 a1 03 bc 9f 80 49 bc
       -0.10337152 0.3366324 -0.0080340365 -0.012298732
000230 14 1d e4 3d ee 49 16 3e 32 95 5b 3c 49 38 70 be
       0.11138359 0.1467664 0.01340227 -0.23458971
000240 77 77 1f 3e e1 82 4a bd d4 3b a7 3d b9 fb fe bd
       0.15572916 -0.049441222 0.08165708 -0.12450356
000250 8c ac 1e be 84 03 3b 3e 2f 2a 2f 3e bd a4 10 3d
       -0.15495509 0.1826306 0.17105936 0.035313357
000260 15 13 f6 3d 7c 28 8e 3d f7 81 bd bd ae e4 3f 3e
       0.12015358 0.069413155 -0.092533045 0.18739578
000270 62 93 57 3d fb cb 55 3d 58 af f4 bc 7d cc 14 3d
       0.05263079 0.052196484 -0.029868767 0.036327828
000280 7c 99 23 be de cc 95 bd 67 61 6f be 81 04 1e 3e
       -0.15976518 -0.07314466 -0.23377 0.15431406
000290 08 b3 00 be 43 44 5a ba 05 d6 d7 3d 1e 18 09 be
       -0.12568295 -0.0008326212 0.10538868 -0.13388106
0002a0 b6 99 8c bd 2d 31 1b 3e aa 46 2c 3e 5b 7a 80 3e
       -0.068652555 0.15155478 0.16823831 0.2509335
0002b0 b7 0f 74 bd f2 01 68 3d 5a 45 99 3d df 08 13 3e
       -0.0595853 0.05664248 0.07483931 0.14358853
0002c0 49 68 04 3e dd 38 7c bc 05 2d 1f 3e f8 fa 1e 3d
       0.12930407 -0.015394417 0.15544517 0.03881356
0002d0 81 1b fe 3d d1 db b1 bd 88 16 b4 bd f1 68 2d be
       0.1240759 -0.08684505 -0.0879336 -0.16934563
0002e0 02 b9 2d bc 2b 05 f7 bb 48 91 fd bd 3d 5d 84 be
       -0.010603191 -0.007538458 -0.12381226 -0.25852385
0002f0 9d 2e 56 3e 8b 28 87 be 7c 16 a2 bd 8e a9 44 3c
       0.20916219 -0.2639812 -0.07914445 0.012003316
000300 50 24 6d 3d 30 f1 84 bd d2 be 5d 3d 3d b1 52 3d
       0.05789596 -0.06491315 0.05413706 0.05143856
000310 bb 18 d7 bd 27 b4 da 3c eb ca 55 bd c9 b3 ff bd
       -0.10502764 0.026697231 -0.05219547 -0.12485463
000320 44 d3 84 bd be ef 2d 3c 91 99 2e be 7b 6e 16 be
       -0.06485608 0.010616241 -0.17050768 -0.14690582
000330 47 dd a5 bd 24 cd c1 bc 71 70 1b 3d 10 dd 04 3d
       -0.08098846 -0.023657389 0.03794903 0.032437384
000340 9c 18 73 3c c4 6a 5e 3d b1 10 48 bd 92 6e 4e 3d
       0.01483741 0.05430104 -0.048844043 0.050398417
000350 95 21 c4 3c 13 2f 17 be ae cf d6 bd 1d a8 91 bd
       0.023941794 -0.14764051 -0.104888305 -0.07112143
000360 1a f8 23 bd 85 9e e6 3d 7c fc 19 be 6b 97 ea 3c
       -0.04003153 0.11260704 -0.15037721 0.028636655
000370 ff 04 aa 3d 5b 6c 05 3d 60 99 d3 bd bf 8a 9d 3d
       0.08301734 0.03257404 -0.10331988 0.07692479
000380 94 6f 13 be 8a 14 5a bd a0 c6 f6 bd 58 95 4f bc
       -0.14398032 -0.053242244 -0.120496035 -0.012669884
000390 5c 5c ea bd 72 de fd bd 51 94 b8 bc 85 db a2 bd
       -0.114433974 -0.12395944 -0.02253166 -0.07952026
0003a0 4f 80 a7 bd a1 84 32 bc f2 be 12 be 48 8c 3e bd
       -0.0817877 -0.010895879 -0.14330652 -0.0465205
0003b0 80 4b dd ba 82 26 05 be 10 97 c6 bc e3 b3 11 3e
       -0.0016883463 -0.13002971 -0.024241954 0.14228778
0003c0 2c 05 24 be 2b 5a e0 3c c6 a1 d5 bc aa ba fa bd
       -0.16017598 0.027386745 -0.026078116 -0.122426346
0003d0 1d c4 79 3d cb 88 b4 3c c4 20 ac 3d e1 dc 08 3d
       0.060978044 0.022037884 0.08404687 0.03341377
0003e0 e9 54 03 be 30 9c 9f 3c 24 11 7d 3d 48 8c a6 bd
       -0.1282536 0.019483656 0.061783925 -0.08132225
0003f0 a6 48 12 be 36 a9 89 3d ad 58 23 3d cc e2 f2 bd
       -0.14285526 0.067217276 0.03987949 -0.11859664

bias f4 [32]
000000 f9 13 7b 3d d4 55 70 bd 09 09 17 bd 92 5d c1 bd
       0.061298344 -0.058675602 -0.03687385 -0.09441675
000010 8c 57 af 3c 6b 69 44 3d c6 37 10 3e 39 d8 bc 3c
       0.02140405 0.047952097 0.14083776 0.023052322
000020 8e ea 0c 3e fd dd 30 3e 6a 19 17 3c 03 b6 16 3e
       0.1376135 0.17272182 0.009222368 0.1471787
000030 3f 9e 8c bc 9f 73 2a 3e 4f d7 43 3e e8 2c 0f 3e
       -0.017165301 0.16645668 0.19125102 0.13981974
000040 7b 32 c2 bc 50 e6 d3 3d ca 64 b9 bc 28 a3 ae 3d
       -0.023705712 0.10346663 -0.022631068 0.08527213
000050 1f f6 20 3e a4 ba 2f 3e d3 92 14 be bf 42 44 3d
       0.15718888 0.17161041 -0.14509134 0.047915217
000060 09 8d 05 be 61 e6 09 bd 46 84 12 3e 54 43 58 3d
       -0.13042082 -0.033666972 0.14308271 0.052798584
000070 a8 fa 69 3e ca 4a 9e 3d 81 b5 1c 3e 80 27 a2 3d
       0.22849524 0.07729109 0.15303613 0.0791769

weight f4 [10, 32]
000000 3f cb 2f 3e 94 6e 78 be 2a 93 64 be fa 85 a3 3d
       0.17167376 -0.24260932 -0.22321764 0.079845384
000010 71 b1 e5 be 70 5b 48 be 02 69 57 3e 0c b6 ba 3d
       -0.4486194 -0.1956613 0.21036151 0.09116754
000020 3f 98 63 bd fa 52 79 3d 66 d0 42 bd 2a 8c fe bd
       -0.055565115 0.06087015 -0.047562025 -0.12429078
000030 d2 39 12 3e 0f 69 47 bd a5 26 2f 3e 1d 63 ae be
       0.14279869 -0.048684176 0.17104585 -0.34059992
000040 c3 c8 27 be 20 4e 26 be a7 e0 e6 bd f3 94 8f 3e
       -0.16385178 -0.1624074 -0.11273318 0.28043327
000050 ac 2d 9b bd 56 11 89 3e b8 a4 fc bb 60 a5 0e be
       -0.075770706 0.2677104 -0.0077100657 -0.13930273
000060 f5 d1 e1 3d 5b a6 4b 3e 4b 41 fd bd a1 e6 95 be
       0.11026374 0.19887678 -0.12365969 -0.29277518
000070 2c 58 98 be 3a f4 7f bd c5 fe 2c be 04 ca 97 3e
       -0.2975477 -0.062488772 -0.16894062 0.29646313
000080 ed 5e 56 bd 9d 5a 17 3e ab ae c6 be e8 1a dd bd
       -0.052336622 0.1478066 -0.38805136 -0.107961476
000090 e8 b8 53 3e 36 25 15 3e f6 f0 b0 be 01 c3 9f 3e
       0.20676005 0.14564976 -0.3455884 0.31203464
0000a0 20 a0 0c be 98 e2 9e 3e 91 b9 09 3e 52 3f a0 3e
       -0.13732958 0.31032252 0.13449694 0.3129831
0000b0 4d 53 df bd 68 0f 1d be ee f4 47 be ff 3a 3c 3d
       -0.1090456 -0.15337908 -0.19527027 0.0459547
0000c0 55 50 78 3e 7f f8 3d 3d c4 61 2b be 38 65 5c bc
       0.24249394 0.046379562 -0.16736513 -0.013451867
0000d0 fd 7b 1e 3d cb c3 29 3d f0 03 c4 3d a8 7a 95 be
       0.038692463 0.04144649 0.095710635 -0.29195142
0000e0 9e 24 de bd 00 00 a6 be 89 5d 45 be 20 2f b6 3e
       -0.10846828 -0.32421875 -0.19273962 0.3558283
0000f0 97 04 bf be da d1 28 be cf 9c 79 bd 39 eb 7c be
       -0.3730819 -0.16486302 -0.06094056 -0.24699105
000100 2e 82 74 be a3 96 cb be c2 aa 01 be f5 4e fb 3c
       -0.23877785 -0.39763364 -0.12662795 0.030677298
000110 66 84 94 3e 4e a0 c1 be f8 be b0 3d 0c 04 08 be
       0.29007262 -0.37817615 0.086301744 -0.13282794
000120 96 ae a2 3c 78 6b 36 be ad de 86 3d d9 86 68 be
       0.01985864 -0.17814434 0.06585441 -0.2270769
000130 ba 95 ad bd 14 57 8c be 84 37 e2 3d 7d 04 4b ba
       -0.08475824 -0.27410185 0.11045745 -0.0007744504
000140 ef e5 74 3e 1d ad 40 be f1 1d 75 bc 53 dc 4b bc
       0.23915838 -0.18816037 -0.014960752 -0.012442666
000150 24 a9 70 3e 03 07 c4 3d 40 3c d4 bd a5 f6 05 3e
       0.23502022 0.0957165 -0.10363054 0.13082369
000160 6c f6 fb bd 0c 5c 72 be 12 19 93 3e 4f 6a f4 3c
       -0.123028606 -0.23667926 0.28730065 0.029835848
000170 75 44 11 bd 78 fc 0b be 6b 65 96 be 11 b0 b4 bc
       -0.035465676 -0.13670528 -0.2937425 -0.022056611
000180 50 3e 94 be 26 65 80 3e 9a 26 37 3e dd d2 a8 bd
       -0.2895379 0.2507717 0.17885819 -0.08243344
000190 c1 3d 15 be 72 6d 8b bd ed 09 42 be 08 99 51 3e
       -0.14574338 -0.068079844 -0.18949099 0.20468533
0001a0 b6 d2 36 3d c5 68 77 be 3f 39 0c be fe 4a c2 be
       0.044634543 -0.2416106 -0.13693713 -0.3794784
0001b0 0f 9e 8c 3e cd b9 2b be 52 3c 8d 3e b5 0f 42 3e
       0.2746434 -0.16770096 0.27585083 0.18951304
0001c0 97 e1 80 3e 39 b3 73 3e 18 0c 08 be 80 d4 8d bc
       0.2517211 0.23798837 -0.13285863 -0.017313242
0001d0 25 5c 22 be 8e b5 17 be c7 c6 81 3d 9b 8a d1 bd
       -0.15855463 -0.14815351 0.06336742 -0.10231515
0001e0 46 2a 3a bd 9f 0f bd 3b 63 96 de bd f2 e6 9b bd
       -0.04545047 0.0057696844 -0.10868528 -0.07612409
0001f0 9c 33 c0 bd 84 83 66 be 94 c4 89 be 70 2c 59 be
       -0.09384844 -0.22511107 -0.2690779 -0.21208358
000200 bc f4 06 bd c6 48 8d 3d 03 8e 0e 3e 52 84 c1 3d
       -0.03294824 0.06898646 0.1392136 0.09449066
000210 76 3a 38 3e e9 7a 3e 3e 13 94 b6 3c ea 4e 34 3e
       0.17991051 0.18601574 0.022287404 0.17608228
000220 79 0c 80 be 66 24 35 3e 94 a8 41 bd 87 74 a6 3e
       -0.25009516 0.17689666 -0.04727991 0.32510778
000230 4b fb a8 be 4a 26 93 3d 4b 95 f3 bb 4f f7 bf be
       -0.3300422 0.071850374 -0.0074335686 -0.3749337
000240 68 6f ff 3c 36 14 73 be c9 81 1b 3e e0 ad 89 be
       0.031181052 -0.23738179 0.15186228 -0.2689047
000250 06 f1 c5 be cf b0 07 be 62 9c 9c 3d 1d 34 bf 3e
       -0.3866045 -0.13251041 0.07647015 0.37344447
000260 3a 15 65 3d 11 ac 63 3e ee 14 31 3e be 80 aa be
       0.055928446 0.22233607 0.1729314 -0.33301347
000270 15 b1 4b be ea ed 2c be e9 fc 85 3e 5e 9e 86 be
       -0.1989177 -0.16887632 0.26169518 -0.262927
000280 c8 e7 b0 3e 47 09 9a 3d a6 49 88 bd 84 e3 dc 3d
       0.34551835 0.07521301 -0.06654672 0.10785583
000290 f5 91 96 ba d1 61 67 3e 5e ed 68 be 95 9c b3 bd
       -0.001148759 0.22595908 -0.22746798 -0.087701
0002a0 d7 77 18 be 85 38 61 be c8 a7 90 be 26 f8 bf be
       -0.14889465 -0.21994217 -0.28253007 -0.3749401
0002b0 42 65 2c 3e 87 c8 7d bd 5e 4d 12 3e cc ab ef bd
       0.16835502 -0.061958816 0.14287326 -0.117026895
0002c0 97 c5 bb be f1 7b c8 3d e6 20 81 3c 30 b5 9f bd
       -0.36674187 0.09789265 0.015762758 -0.07798231
0002d0 c8 24 f9 3d a8 a8 df be aa 39 11 3e 77 f4 61 bd
       0.121652186 -0.43683362 0.14182153 -0.05516478
0002e0 02 3d 47 3d 49 ea ac bd 23 8c 95 be 69 a6 a5 3e
       0.048642166 -0.08443124 -0.29208478 0.32353523
0002f0 9e 63 8c 3e 72 de 4a 3e d9 13 00 3e b8 2e 2a be
       0.27419752 0.19811419 0.12507571 -0.16619384
000300 74 07 98 3e 93 db a4 be 66 0d fd bd 9b bb d2 3d
       0.29693186 -0.32198772 -0.12356071 0.10289689
000310 7b 7a b5 be 4a 72 83 be a0 1b a5 3d bb f4 8b 3e
       -0.35445008 -0.25673133 0.0806191 0.27335152
000320 67 ff f5 be 81 0f 59 be 0d 68 99 3e 3d 58 4a 3d
       -0.4804642 -0.2119732 0.29962197 0.049400557
000330 80 6f 0a 3d 7b 1b 43 be ee ea 76 bd d6 a5 06 bd
       0.03379774 -0.19053452 -0.06028264 -0.032872997
000340 9c d9 29 3c a1 e4 d5 bd a8 88 e1 bd 28 13 94 be
       0.0103668235 -0.10443998 -0.11012393 -0.28920865
000350 2d 9b 8a 3d 77 8a 81 be 54 0e 57 bd 34 9b 38 bd
       0.06767879 -0.25300953 -0.0525039 -0.04506989
000360 37 c7 0d be 06 8b 91 3e 72 d7 ec bd e0 b3 0a 3e
       -0.13845526 0.2842638 -0.115645304 0.1354518
000370 f6 2b 60 bd 4c de 1e 3e b6 f6 2c 3e 86 cd 98 3e
       -0.054729424 0.15514487 0.16890988 0.29844302
000380 ce 65 79 3d d1 9e 7c be bb d1 a7 be 6f 00 84 3c
       0.060888104 -0.24669959 -0.327772 0.016113488
000390 97 06 96 3e f3 59 ae 3e 85 1a 7a 3e e8 cd 51 be
       0.29301903 0.34053 0.24424179 -0.20488703
0003a0 2e 84 89 3d 86 78 29 be b3 60 7d 3e b3 ac 03 be
       0.067146644 -0.16549882 0.24743919 -0.12858848
0003b0 e4 42 5b be 59 ff 3f 3e 31 54 24 be ff 1c 8d 3b
       -0.21412235 0.18749751 -0.16047741 0.004306435
0003c0 e7 3d 67 3d 15 68 18 3c 33 a0 b7 bd 6f c2 53 3d
       0.05645552 0.009302159 -0.089661025 0.0516991
0003d0 28 d1 ae be 2d ad 12 be b1 58 01 be fa a8 d2 be
       -0.3414395 -0.14323874 -0.1263149 -0.41144544
0003e0 e4 8c c2 bd ce 55 15 be 35 b1 b9 3e 94 1a c7 be
       -0.09499529 -0.14583513 0.3626801 -0.38887465
0003f0 79 2b c9 be 2f cf cd 3d 13 e9 f1 bd 81 8c b0 be
       -0.3929098 0.10049283 -0.118120335 -0.34482196

bias f4 [10]
000000 94 4c 3e be 2a 80 a7 3c 33 d7 0f 3e ad 9c 61 3d
       -0.185839 0.020446856 0.14046936 0.05508106
000010 11 bb 11 be ce 8b 6d b9 1a 67 69 be 8b 92 18 3e
       -0.14231516 -0.00022654163 -0.22793236 0.14899652
000020 ae 68 11 3e c1 aa 8c 3d
       0.14200088 0.06868506
